node {
  name: "global_step/Initializer/zeros"
  op: "Const"
  attr {
    key: "_class"
    value {
      list {
        s: "loc:@global_step"
      }
    }
  }
  attr {
    key: "_output_shapes"
    value {
      list {
        shape {
        }
      }
    }
  }
  attr {
    key: "dtype"
    value {
      type: DT_INT64
    }
  }
  attr {
    key: "value"
    value {
      tensor {
        dtype: DT_INT64
        tensor_shape {
        }
        int64_val: 0
      }
    }
  }
}
node {
  name: "global_step"
  op: "VarHandleOp"
  attr {
    key: "_class"
    value {
      list {
        s: "loc:@global_step"
      }
    }
  }
  attr {
    key: "_output_shapes"
    value {
      list {
        shape {
        }
      }
    }
  }
  attr {
    key: "container"
    value {
      s: ""
    }
  }
  attr {
    key: "dtype"
    value {
      type: DT_INT64
    }
  }
  attr {
    key: "shape"
    value {
      shape {
      }
    }
  }
  attr {
    key: "shared_name"
    value {
      s: "global_step"
    }
  }
}
node {
  name: "global_step/IsInitialized/VarIsInitializedOp"
  op: "VarIsInitializedOp"
  input: "global_step"
  attr {
    key: "_output_shapes"
    value {
      list {
        shape {
        }
      }
    }
  }
}
node {
  name: "global_step/Assign"
  op: "AssignVariableOp"
  input: "global_step"
  input: "global_step/Initializer/zeros"
  attr {
    key: "dtype"
    value {
      type: DT_INT64
    }
  }
}
node {
  name: "global_step/Read/ReadVariableOp"
  op: "ReadVariableOp"
  input: "global_step"
  attr {
    key: "_output_shapes"
    value {
      list {
        shape {
        }
      }
    }
  }
  attr {
    key: "dtype"
    value {
      type: DT_INT64
    }
  }
}
node {
  name: "global_step/VarIsInitializedOp"
  op: "VarIsInitializedOp"
  input: "global_step"
  attr {
    key: "_output_shapes"
    value {
      list {
        shape {
        }
      }
    }
  }
}
node {
  name: "global_step/cond"
  op: "If"
  input: "global_step/VarIsInitializedOp"
  input: "global_step"
  input: "global_step/Initializer/zeros"
  attr {
    key: "Tcond"
    value {
      type: DT_BOOL
    }
  }
  attr {
    key: "Tin"
    value {
      list {
        type: DT_RESOURCE
        type: DT_INT64
      }
    }
  }
  attr {
    key: "Tout"
    value {
      list {
        type: DT_INT64
      }
    }
  }
  attr {
    key: "_lower_using_switch_merge"
    value {
      b: true
    }
  }
  attr {
    key: "_output_shapes"
    value {
      list {
        shape {
        }
      }
    }
  }
  attr {
    key: "else_branch"
    value {
      func {
        name: "global_step_cond_false_64604"
      }
    }
  }
  attr {
    key: "output_shapes"
    value {
      list {
        shape {
        }
      }
    }
  }
  attr {
    key: "then_branch"
    value {
      func {
        name: "global_step_cond_true_64603"
      }
    }
  }
}
node {
  name: "global_step/cond/Identity"
  op: "Identity"
  input: "global_step/cond"
  attr {
    key: "T"
    value {
      type: DT_INT64
    }
  }
  attr {
    key: "_output_shapes"
    value {
      list {
        shape {
        }
      }
    }
  }
}
node {
  name: "global_step/add/y"
  op: "Const"
  attr {
    key: "_output_shapes"
    value {
      list {
        shape {
        }
      }
    }
  }
  attr {
    key: "dtype"
    value {
      type: DT_INT64
    }
  }
  attr {
    key: "value"
    value {
      tensor {
        dtype: DT_INT64
        tensor_shape {
        }
        int64_val: 0
      }
    }
  }
}
node {
  name: "global_step/add"
  op: "AddV2"
  input: "global_step/cond/Identity"
  input: "global_step/add/y"
  attr {
    key: "T"
    value {
      type: DT_INT64
    }
  }
  attr {
    key: "_output_shapes"
    value {
      list {
        shape {
        }
      }
    }
  }
}
node {
  name: "normalize_element/component_0"
  op: "Const"
  device: "/device:CPU:0"
  attr {
    key: "_output_shapes"
    value {
      list {
        shape {
          dim {
            size: 668
          }
        }
      }
    }
  }
  attr {
    key: "dtype"
    value {
      type: DT_DOUBLE
    }
  }
  attr {
    key: "value"
    value {
      tensor {
        dtype: DT_DOUBLE
        tensor_shape {
          dim {
            size: 668
          }
        }
        tensor_content: "…"
      }
    }
  }
}
node {
  name: "normalize_element/component_1"
  op: "Const"
  device: "/device:CPU:0"
  attr {
    key: "_output_shapes"
    value {
      list {
        shape {
          dim {
            size: 668
          }
        }
      }
    }
  }
  attr {
    key: "dtype"
    value {
      type: DT_STRING
    }
  }
  attr {
    key: "value"
    value {
      tensor {
        dtype: DT_STRING
        tensor_shape {
          dim {
            size: 668
          }
        }
        string_val: "Unknown"
        string_val: "E"
        string_val: "D"
        string_val: "Unknown"
        string_val: "Unknown"
        string_val: "Unknown"
        string_val: "Unknown"
        string_val: "Unknown"
        string_val: "Unknown"
        string_val: "Unknown"
        string_val: "Unknown"
        string_val: "C"
        string_val: "Unknown"
        string_val: "Unknown"
        string_val: "D"
        string_val: "Unknown"
        string_val: "Unknown"
        string_val: "Unknown"
        string_val: "Unknown"
        string_val: "Unknown"
        string_val: "Unknown"
        string_val: "Unknown"
        string_val: "C"
        string_val: "B"
        string_val: "Unknown"
        string_val: "Unknown"
        string_val: "Unknown"
        string_val: "Unknown"
        string_val: "B"
        string_val: "Unknown"
        string_val: "C"
        string_val: "B"
        string_val: "F"
        string_val: "Unknown"
        string_val: "Unknown"
        string_val: "Unknown"
        string_val: "Unknown"
        string_val: "Unknown"
        string_val: "Unknown"
        string_val: "Unknown"
        string_val: "Unknown"
        string_val: "D"
        string_val: "Unknown"
        string_val: "Unknown"
        string_val: "B"
        string_val: "Unknown"
        string_val: "Unknown"
        string_val: "Unknown"
        string_val: "Unknown"
        string_val: "Unknown"
        string_val: "Unknown"
        string_val: "C"
        string_val: "Unknown"
        string_val: "B"
        string_val: "Unknown"
        string_val: "Unknown"
        string_val: "Unknown"
        string_val: "Unknown"
        string_val: "Unknown"
        string_val: "Unknown"
        string_val: "Unknown"
        string_val: "Unknown"
        string_val: "Unknown"
        string_val: "Unknown"
        string_val: "Unknown"
        string_val: "Unknown"
        string_val: "Unknown"
        string_val: "Unknown"
        string_val: "Unknown"
        string_val: "Unknown"
        string_val: "Unknown"
        string_val: "Unknown"
        string_val: "Unknown"
        string_val: "A"
        string_val: "D"
        string_val: "D"
        string_val: "B"
        string_val: "Unknown"
        string_val: "Unknown"
        string_val: "C"
        string_val: "B"
        string_val: "Unknown"
        string_val: "C"
        string_val: "Unknown"
        string_val: "Unknown"
        string_val: "Unknown"
        string_val: "Unknown"
        string_val: "Unknown"
        string_val: "Unknown"
        string_val: "Unknown"
        string_val: "C"
        string_val: "Unknown"
        string_val: "B"
        string_val: "Unknown"
        string_val: "Unknown"
        string_val: "Unknown"
        string_val: "Unknown"
        string_val: "Unknown"
        string_val: "B"
        string_val: "Unknown"
        string_val: "Unknown"
        string_val: "T"
        string_val: "F"
        string_val: "Unknown"
        string_val: "B"
        string_val: "C"
        string_val: "Unknown"
        string_val: "A"
        string_val: "Unknown"
        string_val: "F"
        string_val: "Unknown"
        string_val: "Unknown"
        string_val: "B"
        string_val: "Unknown"
        string_val: "Unknown"
        string_val: "C"
        string_val: "Unknown"
        string_val: "Unknown"
        string_val: "C"
        string_val: "Unknown"
        string_val: "Unknown"
        string_val: "E"
        string_val: "Unknown"
        string_val: "Unknown"
        string_val: "Unknown"
        string_val: "Unknown"
        string_val: "Unknown"
        string_val: "D"
        string_val: "Unknown"
        string_val: "Unknown"
        string_val: "Unknown"
        string_val: "C"
        string_val: "Unknown"
        string_val: "D"
        string_val: "Unknown"
        string_val: "Unknown"
        string_val: "Unknown"
        string_val: "E"
        string_val: "Unknown"
        string_val: "Unknown"
        string_val: "Unknown"
        string_val: "Unknown"
        string_val: "Unknown"
        string_val: "Unknown"
        string_val: "Unknown"
        string_val: "Unknown"
        string_val: "F"
        string_val: "Unknown"
        string_val: "C"
        string_val: "C"
        string_val: "Unknown"
        string_val: "Unknown"
        string_val: "Unknown"
        string_val: "Unknown"
        string_val: "E"
        string_val: "B"
        string_val: "Unknown"
        string_val: "B"
        string_val: "Unknown"
        string_val: "Unknown"
        string_val: "Unknown"
        string_val: "Unknown"
        string_val: "Unknown"
        string_val: "Unknown"
        string_val: "Unknown"
        string_val: "Unknown"
        string_val: "Unknown"
        string_val: "D"
        string_val: "A"
        string_val: "F"
        string_val: "Unknown"
        string_val: "Unknown"
        string_val: "Unknown"
        string_val: "Unknown"
        string_val: "Unknown"
        string_val: "Unknown"
        string_val: "Unknown"
        string_val: "D"
        string_val: "Unknown"
        string_val: "Unknown"
        string_val: "Unknown"
        string_val: "Unknown"
        string_val: "E"
        string_val: "Unknown"
        string_val: "C"
        string_val: "Unknown"
        string_val: "E"
        string_val: "Unknown"
        string_val: "Unknown"
        string_val: "Unknown"
        string_val: "Unknown"
        string_val: "G"
        string_val: "Unknown"
        string_val: "E"
        string_val: "Unknown"
        string_val: "Unknown"
        string_val: "B"
        string_val: "Unknown"
        string_val: "Unknown"
        string_val: "Unknown"
        string_val: "E"
        string_val: "Unknown"
        string_val: "Unknown"
        string_val: "Unknown"
        string_val: "A"
        string_val: "Unknown"
        string_val: "Unknown"
        string_val: "D"
        string_val: "Unknown"
        string_val: "Unknown"
        string_val: "Unknown"
        string_val: "Unknown"
        string_val: "Unknown"
        string_val: "Unknown"
        string_val: "Unknown"
        string_val: "Unknown"
        string_val: "C"
        string_val: "C"
        string_val: "Unknown"
        string_val: "Unknown"
        string_val: "C"
        string_val: "Unknown"
        string_val: "Unknown"
        string_val: "Unknown"
        string_val: "B"
        string_val: "Unknown"
        string_val: "Unknown"
        string_val: "A"
        string_val: "C"
        string_val: "Unknown"
        string_val: "Unknown"
        string_val: "Unknown"
        string_val: "A"
        string_val: "Unknown"
        string_val: "Unknown"
        string_val: "C"
        string_val: "Unknown"
        string_val: "Unknown"
        string_val: "Unknown"
        string_val: "Unknown"
        string_val: "Unknown"
        string_val: "Unknown"
        string_val: "E"
        string_val: "Unknown"
        string_val: "A"
        string_val: "B"
        string_val: "C"
        string_val: "Unknown"
        string_val: "Unknown"
        string_val: "Unknown"
        string_val: "Unknown"
        string_val: "Unknown"
        string_val: "C"
        string_val: "Unknown"
        string_val: "Unknown"
        string_val: "E"
        string_val: "Unknown"
        string_val: "Unknown"
        string_val: "Unknown"
        string_val: "Unknown"
        string_val: "Unknown"
        string_val: "Unknown"
        string_val: "Unknown"
        string_val: "Unknown"
        string_val: "Unknown"
        string_val: "Unknown"
        string_val: "F"
        string_val: "B"
        string_val: "Unknown"
        string_val: "Unknown"
        string_val: "B"
        string_val: "Unknown"
        string_val: "Unknown"
        string_val: "Unknown"
        string_val: "Unknown"
        string_val: "Unknown"
        string_val: "G"
        string_val: "Unknown"
        string_val: "Unknown"
        string_val: "Unknown"
        string_val: "Unknown"
        string_val: "Unknown"
        string_val: "Unknown"
        string_val: "Unknown"
        string_val: "Unknown"
        string_val: "Unknown"
        string_val: "Unknown"
        string_val: "Unknown"
        string_val: "Unknown"
        string_val: "Unknown"
        string_val: "Unknown"
        string_val: "Unknown"
        string_val: "Unknown"
        string_val: "Unknown"
        string_val: "Unknown"
        string_val: "Unknown"
        string_val: "Unknown"
        string_val: "Unknown"
        string_val: "Unknown"
        string_val: "Unknown"
        string_val: "B"
        string_val: "Unknown"
        string_val: "Unknown"
        string_val: "Unknown"
        string_val: "Unknown"
        string_val: "Unknown"
        string_val: "Unknown"
        string_val: "Unknown"
        string_val: "Unknown"
        string_val: "E"
        string_val: "Unknown"
        string_val: "Unknown"
        string_val: "Unknown"
        string_val: "Unknown"
        string_val: "Unknown"
        string_val: "Unknown"
        string_val: "D"
        string_val: "Unknown"
        string_val: "B"
        string_val: "E"
        string_val: "Unknown"
        string_val: "Unknown"
        string_val: "Unknown"
        string_val: "Unknown"
        string_val: "Unknown"
        string_val: "Unknown"
        string_val: "Unknown"
        string_val: "Unknown"
        string_val: "D"
        string_val: "Unknown"
        string_val: "B"
        string_val: "Unknown"
        string_val: "D"
        string_val: "Unknown"
        string_val: "E"
        string_val: "D"
        string_val: "Unknown"
        string_val: "Unknown"
        string_val: "C"
        string_val: "Unknown"
        string_val: "Unknown"
        string_val: "Unknown"
        string_val: "Unknown"
        string_val: "Unknown"
        string_val: "D"
        string_val: "Unknown"
        string_val: "D"
        string_val: "Unknown"
        string_val: "Unknown"
        string_val: "Unknown"
        string_val: "Unknown"
        string_val: "B"
        string_val: "E"
        string_val: "Unknown"
        string_val: "Unknown"
        string_val: "Unknown"
        string_val: "Unknown"
        string_val: "Unknown"
        string_val: "Unknown"
        string_val: "C"
        string_val: "E"
        string_val: "Unknown"
        string_val: "Unknown"
        string_val: "Unknown"
        string_val: "Unknown"
        string_val: "Unknown"
        string_val: "Unknown"
        string_val: "Unknown"
        string_val: "B"
        string_val: "Unknown"
        string_val: "Unknown"
        string_val: "Unknown"
        string_val: "Unknown"
        string_val: "Unknown"
        string_val: "Unknown"
        string_val: "Unknown"
        string_val: "C"
        string_val: "Unknown"
        string_val: "D"
        string_val: "Unknown"
        string_val: "Unknown"
        string_val: "Unknown"
        string_val: "Unknown"
        string_val: "Unknown"
        string_val: "Unknown"
        string_val: "Unknown"
        string_val: "Unknown"
        string_val: "Unknown"
        string_val: "Unknown"
        string_val: "Unknown"
        string_val: "Unknown"
        string_val: "Unknown"
        string_val: "Unknown"
        string_val: "Unknown"
        string_val: "B"
        string_val: "Unknown"
        string_val: "B"
        string_val: "Unknown"
        string_val: "Unknown"
        string_val: "Unknown"
        string_val: "Unknown"
        string_val: "Unknown"
        string_val: "B"
        string_val: "Unknown"
        string_val: "Unknown"
        string_val: "B"
        string_val: "E"
        string_val: "Unknown"
        string_val: "Unknown"
        string_val: "Unknown"
        string_val: "Unknown"
        string_val: "Unknown"
        string_val: "Unknown"
        string_val: "Unknown"
        string_val: "Unknown"
        string_val: "B"
        string_val: "Unknown"
        string_val: "Unknown"
        string_val: "Unknown"
        string_val: "Unknown"
        string_val: "B"
        string_val: "Unknown"
        string_val: "Unknown"
        string_val: "Unknown"
        string_val: "Unknown"
        string_val: "Unknown"
        string_val: "Unknown"
        string_val: "Unknown"
        string_val: "Unknown"
        string_val: "Unknown"
        string_val: "Unknown"
        string_val: "Unknown"
        string_val: "Unknown"
        string_val: "Unknown"
        string_val: "Unknown"
        string_val: "Unknown"
        string_val: "Unknown"
        string_val: "Unknown"
        string_val: "Unknown"
        string_val: "C"
        string_val: "Unknown"
        string_val: "Unknown"
        string_val: "Unknown"
        string_val: "Unknown"
        string_val: "Unknown"
        string_val: "Unknown"
        string_val: "Unknown"
        string_val: "Unknown"
        string_val: "Unknown"
        string_val: "Unknown"
        string_val: "Unknown"
        string_val: "Unknown"
        string_val: "Unknown"
        string_val: "Unknown"
        string_val: "Unknown"
        string_val: "C"
        string_val: "Unknown"
        string_val: "Unknown"
        string_val: "Unknown"
        string_val: "Unknown"
        string_val: "Unknown"
        string_val: "B"
        string_val: "Unknown"
        string_val: "Unknown"
        string_val: "Unknown"
        string_val: "Unknown"
        string_val: "Unknown"
        string_val: "Unknown"
        string_val: "Unknown"
        string_val: "C"
        string_val: "Unknown"
        string_val: "Unknown"
        string_val: "Unknown"
        string_val: "Unknown"
        string_val: "Unknown"
        string_val: "C"
        string_val: "C"
        string_val: "C"
        string_val: "Unknown"
        string_val: "Unknown"
        string_val: "Unknown"
        string_val: "Unknown"
        string_val: "Unknown"
        string_val: "Unknown"
        string_val: "Unknown"
        string_val: "Unknown"
        string_val: "Unknown"
        string_val: "Unknown"
        string_val: "Unknown"
        string_val: "Unknown"
        string_val: "Unknown"
        string_val: "Unknown"
        string_val: "Unknown"
        string_val: "Unknown"
        string_val: "Unknown"
        string_val: "Unknown"
        string_val: "Unknown"
        string_val: "C"
        string_val: "C"
        string_val: "Unknown"
        string_val: "C"
        string_val: "Unknown"
        string_val: "Unknown"
        string_val: "Unknown"
        string_val: "Unknown"
        string_val: "Unknown"
        string_val: "Unknown"
        string_val: "Unknown"
        string_val: "Unknown"
        string_val: "Unknown"
        string_val: "C"
        string_val: "Unknown"
        string_val: "Unknown"
        string_val: "A"
        string_val: "B"
        string_val: "C"
        string_val: "A"
        string_val: "Unknown"
        string_val: "Unknown"
        string_val: "Unknown"
        string_val: "Unknown"
        string_val: "C"
        string_val: "C"
        string_val: "Unknown"
        string_val: "Unknown"
        string_val: "Unknown"
        string_val: "Unknown"
        string_val: "C"
        string_val: "Unknown"
        string_val: "Unknown"
        string_val: "Unknown"
        string_val: "Unknown"
        string_val: "Unknown"
        string_val: "Unknown"
        string_val: "Unknown"
        string_val: "Unknown"
        string_val: "Unknown"
        string_val: "Unknown"
        string_val: "Unknown"
        string_val: "Unknown"
        string_val: "Unknown"
        string_val: "Unknown"
        string_val: "Unknown"
        string_val: "Unknown"
        string_val: "Unknown"
        string_val: "Unknown"
        string_val: "Unknown"
        string_val: "A"
        string_val: "Unknown"
        string_val: "Unknown"
        string_val: "C"
        string_val: "Unknown"
        string_val: "Unknown"
        string_val: "Unknown"
        string_val: "Unknown"
        string_val: "E"
        string_val: "Unknown"
        string_val: "Unknown"
        string_val: "Unknown"
        string_val: "E"
        string_val: "D"
        string_val: "Unknown"
        string_val: "Unknown"
        string_val: "Unknown"
        string_val: "Unknown"
        string_val: "E"
        string_val: "Unknown"
        string_val: "Unknown"
        string_val: "E"
        string_val: "Unknown"
        string_val: "Unknown"
        string_val: "Unknown"
        string_val: "Unknown"
        string_val: "D"
        string_val: "Unknown"
        string_val: "Unknown"
        string_val: "C"
        string_val: "Unknown"
        string_val: "Unknown"
        string_val: "Unknown"
        string_val: "Unknown"
        string_val: "Unknown"
        string_val: "Unknown"
        string_val: "D"
        string_val: "Unknown"
        string_val: "Unknown"
        string_val: "Unknown"
        string_val: "Unknown"
        string_val: "C"
        string_val: "Unknown"
        string_val: "Unknown"
        string_val: "E"
        string_val: "Unknown"
        string_val: "Unknown"
        string_val: "F"
        string_val: "Unknown"
        string_val: "Unknown"
        string_val: "Unknown"
        string_val: "Unknown"
        string_val: "Unknown"
        string_val: "E"
        string_val: "Unknown"
        string_val: "C"
        string_val: "B"
        string_val: "E"
        string_val: "C"
        string_val: "D"
        string_val: "Unknown"
        string_val: "Unknown"
        string_val: "Unknown"
        string_val: "B"
        string_val: "Unknown"
        string_val: "Unknown"
        string_val: "A"
        string_val: "Unknown"
        string_val: "Unknown"
        string_val: "Unknown"
        string_val: "Unknown"
        string_val: "Unknown"
        string_val: "Unknown"
        string_val: "B"
        string_val: "Unknown"
        string_val: "B"
        string_val: "Unknown"
        string_val: "C"
        string_val: "Unknown"
        string_val: "E"
        string_val: "C"
        string_val: "E"
        string_val: "Unknown"
        string_val: "Unknown"
        string_val: "Unknown"
        string_val: "Unknown"
        string_val: "B"
        string_val: "Unknown"
        string_val: "F"
        string_val: "Unknown"
        string_val: "Unknown"
        string_val: "C"
        string_val: "Unknown"
        string_val: "Unknown"
        string_val: "Unknown"
        string_val: "Unknown"
        string_val: "E"
        string_val: "Unknown"
        string_val: "E"
        string_val: "F"
        string_val: "E"
        string_val: "Unknown"
        string_val: "Unknown"
        string_val: "Unknown"
        string_val: "Unknown"
        string_val: "B"
        string_val: "Unknown"
        string_val: "D"
        string_val: "F"
        string_val: "Unknown"
        string_val: "Unknown"
        string_val: "Unknown"
        string_val: "A"
        string_val: "Unknown"
        string_val: "Unknown"
        string_val: "Unknown"
        string_val: "Unknown"
        string_val: "Unknown"
        string_val: "Unknown"
        string_val: "Unknown"
        string_val: "Unknown"
      }
    }
  }
}
node {
  name: "normalize_element/component_2"
  op: "Const"
  device: "/device:CPU:0"
  attr {
    key: "_output_shapes"
    value {
      list {
        shape {
          dim {
            size: 668
          }
        }
      }
    }
  }
  attr {
    key: "dtype"
    value {
      type: DT_STRING
    }
  }
  attr {
    key: "value"
    value {
      tensor {
        dtype: DT_STRING
        tensor_shape {
          dim {
            size: 668
          }
        }
        string_val: "C"
        string_val: "S"
        string_val: "S"
        string_val: "C"
        string_val: "S"
        string_val: "Q"
        string_val: "S"
        string_val: "S"
        string_val: "S"
        string_val: "C"
        string_val: "Q"
        string_val: "C"
        string_val: "S"
        string_val: "Q"
        string_val: "S"
        string_val: "S"
        string_val: "S"
        string_val: "S"
        string_val: "S"
        string_val: "C"
        string_val: "S"
        string_val: "S"
        string_val: "S"
        string_val: "C"
        string_val: "S"
        string_val: "C"
        string_val: "S"
        string_val: "Q"
        string_val: "S"
        string_val: "S"
        string_val: "S"
        string_val: "C"
        string_val: "C"
        string_val: "C"
        string_val: "S"
        string_val: "S"
        string_val: "S"
        string_val: "C"
        string_val: "S"
        string_val: "S"
        string_val: "S"
        string_val: "C"
        string_val: "S"
        string_val: "S"
        string_val: "S"
        string_val: "S"
        string_val: "S"
        string_val: "S"
        string_val: "C"
        string_val: "S"
        string_val: "S"
        string_val: "S"
        string_val: "S"
        string_val: "S"
        string_val: "S"
        string_val: "S"
        string_val: "S"
        string_val: "S"
        string_val: "C"
        string_val: "S"
        string_val: "S"
        string_val: "S"
        string_val: "Q"
        string_val: "Q"
        string_val: "S"
        string_val: "S"
        string_val: "C"
        string_val: "S"
        string_val: "S"
        string_val: "S"
        string_val: "S"
        string_val: "S"
        string_val: "C"
        string_val: "S"
        string_val: "C"
        string_val: "C"
        string_val: "S"
        string_val: "S"
        string_val: "S"
        string_val: "C"
        string_val: "C"
        string_val: "S"
        string_val: "C"
        string_val: "Q"
        string_val: "S"
        string_val: "S"
        string_val: "S"
        string_val: "S"
        string_val: "S"
        string_val: "C"
        string_val: "S"
        string_val: "C"
        string_val: "S"
        string_val: "Q"
        string_val: "S"
        string_val: "S"
        string_val: "S"
        string_val: "Q"
        string_val: "S"
        string_val: "S"
        string_val: "S"
        string_val: "S"
        string_val: "S"
        string_val: "S"
        string_val: "C"
        string_val: "S"
        string_val: "C"
        string_val: "C"
        string_val: "S"
        string_val: "S"
        string_val: "C"
        string_val: "C"
        string_val: "S"
        string_val: "S"
        string_val: "S"
        string_val: "S"
        string_val: "S"
        string_val: "S"
        string_val: "S"
        string_val: "S"
        string_val: "S"
        string_val: "S"
        string_val: "S"
        string_val: "S"
        string_val: "S"
        string_val: "S"
        string_val: "S"
        string_val: "C"
        string_val: "S"
        string_val: "C"
        string_val: "C"
        string_val: "C"
        string_val: "S"
        string_val: "S"
        string_val: "S"
        string_val: "Q"
        string_val: "S"
        string_val: "S"
        string_val: "S"
        string_val: "C"
        string_val: "S"
        string_val: "S"
        string_val: "S"
        string_val: "S"
        string_val: "Q"
        string_val: "S"
        string_val: "S"
        string_val: "S"
        string_val: "S"
        string_val: "C"
        string_val: "S"
        string_val: "S"
        string_val: "S"
        string_val: "S"
        string_val: "S"
        string_val: "S"
        string_val: "S"
        string_val: "S"
        string_val: "S"
        string_val: "S"
        string_val: "Q"
        string_val: "C"
        string_val: "S"
        string_val: "C"
        string_val: "C"
        string_val: "S"
        string_val: "S"
        string_val: "S"
        string_val: "S"
        string_val: "S"
        string_val: "S"
        string_val: "S"
        string_val: "S"
        string_val: "S"
        string_val: "C"
        string_val: "S"
        string_val: "S"
        string_val: "C"
        string_val: "C"
        string_val: "S"
        string_val: "S"
        string_val: "S"
        string_val: "S"
        string_val: "Q"
        string_val: "S"
        string_val: "S"
        string_val: "S"
        string_val: "S"
        string_val: "S"
        string_val: "S"
        string_val: "S"
        string_val: "S"
        string_val: "S"
        string_val: "C"
        string_val: "Q"
        string_val: "S"
        string_val: "S"
        string_val: "S"
        string_val: "S"
        string_val: "S"
        string_val: "S"
        string_val: "S"
        string_val: "C"
        string_val: "S"
        string_val: "S"
        string_val: "C"
        string_val: "S"
        string_val: "S"
        string_val: "S"
        string_val: "S"
        string_val: "S"
        string_val: "S"
        string_val: "S"
        string_val: "S"
        string_val: "C"
        string_val: "S"
        string_val: "C"
        string_val: "C"
        string_val: "C"
        string_val: "S"
        string_val: "S"
        string_val: "C"
        string_val: "S"
        string_val: "S"
        string_val: "C"
        string_val: "S"
        string_val: "S"
        string_val: "S"
        string_val: "S"
        string_val: "S"
        string_val: "C"
        string_val: "S"
        string_val: "C"
        string_val: "S"
        string_val: "S"
        string_val: "Q"
        string_val: "S"
        string_val: "C"
        string_val: "S"
        string_val: "S"
        string_val: "S"
        string_val: "S"
        string_val: "S"
        string_val: "S"
        string_val: "S"
        string_val: "S"
        string_val: "C"
        string_val: "C"
        string_val: "Q"
        string_val: "S"
        string_val: "Q"
        string_val: "C"
        string_val: "Q"
        string_val: "S"
        string_val: "S"
        string_val: "S"
        string_val: "S"
        string_val: "S"
        string_val: "S"
        string_val: "S"
        string_val: "S"
        string_val: "Q"
        string_val: "S"
        string_val: "S"
        string_val: "S"
        string_val: "S"
        string_val: "S"
        string_val: "C"
        string_val: "S"
        string_val: "S"
        string_val: "C"
        string_val: "S"
        string_val: "S"
        string_val: "S"
        string_val: "S"
        string_val: "S"
        string_val: "S"
        string_val: "S"
        string_val: "S"
        string_val: "S"
        string_val: "S"
        string_val: "S"
        string_val: "S"
        string_val: "C"
        string_val: "S"
        string_val: "S"
        string_val: "S"
        string_val: "S"
        string_val: "S"
        string_val: "Q"
        string_val: "S"
        string_val: "S"
        string_val: "S"
        string_val: "C"
        string_val: "Q"
        string_val: "C"
        string_val: "C"
        string_val: "S"
        string_val: "S"
        string_val: "Q"
        string_val: "S"
        string_val: "S"
        string_val: "S"
        string_val: "S"
        string_val: "S"
        string_val: "Q"
        string_val: "S"
        string_val: "S"
        string_val: "S"
        string_val: "C"
        string_val: "S"
        string_val: "C"
        string_val: "S"
        string_val: "S"
        string_val: "C"
        string_val: "S"
        string_val: "C"
        string_val: "S"
        string_val: "C"
        string_val: "S"
        string_val: "S"
        string_val: "Q"
        string_val: "S"
        string_val: "S"
        string_val: "S"
        string_val: "S"
        string_val: "S"
        string_val: "S"
        string_val: "S"
        string_val: "C"
        string_val: "C"
        string_val: "S"
        string_val: "C"
        string_val: "S"
        string_val: "C"
        string_val: "S"
        string_val: "S"
        string_val: "S"
        string_val: "S"
        string_val: "C"
        string_val: "S"
        string_val: "S"
        string_val: "C"
        string_val: "S"
        string_val: "S"
        string_val: "Q"
        string_val: "S"
        string_val: "Q"
        string_val: "S"
        string_val: "S"
        string_val: "C"
        string_val: "C"
        string_val: "Q"
        string_val: "S"
        string_val: "C"
        string_val: "S"
        string_val: "S"
        string_val: "Q"
        string_val: "Q"
        string_val: "S"
        string_val: "S"
        string_val: "Q"
        string_val: "S"
        string_val: "S"
        string_val: "S"
        string_val: "S"
        string_val: "S"
        string_val: "C"
        string_val: "C"
        string_val: "C"
        string_val: "S"
        string_val: "Q"
        string_val: "S"
        string_val: "Q"
        string_val: "S"
        string_val: "S"
        string_val: "S"
        string_val: "S"
        string_val: "S"
        string_val: "S"
        string_val: "C"
        string_val: "S"
        string_val: "S"
        string_val: "S"
        string_val: "S"
        string_val: "S"
        string_val: "Q"
        string_val: "S"
        string_val: "S"
        string_val: "S"
        string_val: "S"
        string_val: "Q"
        string_val: "S"
        string_val: "S"
        string_val: "C"
        string_val: "S"
        string_val: "C"
        string_val: "S"
        string_val: "C"
        string_val: "S"
        string_val: "S"
        string_val: "S"
        string_val: "S"
        string_val: "C"
        string_val: "S"
        string_val: "C"
        string_val: "S"
        string_val: "S"
        string_val: "S"
        string_val: "S"
        string_val: "Q"
        string_val: "S"
        string_val: "C"
        string_val: "S"
        string_val: "S"
        string_val: "S"
        string_val: "S"
        string_val: "S"
        string_val: "S"
        string_val: "S"
        string_val: "S"
        string_val: "S"
        string_val: "S"
        string_val: "Q"
        string_val: "S"
        string_val: "S"
        string_val: "S"
        string_val: "Q"
        string_val: "C"
        string_val: "S"
        string_val: "S"
        string_val: "S"
        string_val: "S"
        string_val: "S"
        string_val: "S"
        string_val: "S"
        string_val: "S"
        string_val: "S"
        string_val: "S"
        string_val: "S"
        string_val: "S"
        string_val: "Q"
        string_val: "S"
        string_val: "S"
        string_val: "S"
        string_val: "S"
        string_val: "S"
        string_val: "S"
        string_val: "S"
        string_val: "S"
        string_val: "S"
        string_val: "S"
        string_val: "Q"
        string_val: "S"
        string_val: "S"
        string_val: "S"
        string_val: "Q"
        string_val: "Q"
        string_val: "S"
        string_val: "S"
        string_val: "Q"
        string_val: "C"
        string_val: "S"
        string_val: "S"
        string_val: "S"
        string_val: "S"
        string_val: "S"
        string_val: "S"
        string_val: "C"
        string_val: "S"
        string_val: "S"
        string_val: "S"
        string_val: "Q"
        string_val: "Q"
        string_val: "S"
        string_val: "C"
        string_val: "S"
        string_val: "S"
        string_val: "S"
        string_val: "S"
        string_val: "S"
        string_val: "S"
        string_val: "S"
        string_val: "C"
        string_val: "S"
        string_val: "S"
        string_val: "S"
        string_val: "S"
        string_val: "S"
        string_val: "S"
        string_val: "Q"
        string_val: "S"
        string_val: "S"
        string_val: "Q"
        string_val: "S"
        string_val: "S"
        string_val: "S"
        string_val: "S"
        string_val: "C"
        string_val: "C"
        string_val: "S"
        string_val: "S"
        string_val: "S"
        string_val: "C"
        string_val: "S"
        string_val: "S"
        string_val: "S"
        string_val: "S"
        string_val: "C"
        string_val: "S"
        string_val: "S"
        string_val: "S"
        string_val: "S"
        string_val: "S"
        string_val: "C"
        string_val: "C"
        string_val: "C"
        string_val: "Q"
        string_val: "S"
        string_val: "S"
        string_val: "S"
        string_val: "S"
        string_val: "S"
        string_val: "S"
        string_val: "Q"
        string_val: "S"
        string_val: "S"
        string_val: "S"
        string_val: "S"
        string_val: "S"
        string_val: "S"
        string_val: "S"
        string_val: "S"
        string_val: "S"
        string_val: "S"
        string_val: "S"
        string_val: "S"
        string_val: "S"
        string_val: "S"
        string_val: "S"
        string_val: "S"
        string_val: "S"
        string_val: "S"
        string_val: "S"
        string_val: "S"
        string_val: "C"
        string_val: "S"
        string_val: "C"
        string_val: "S"
        string_val: "S"
        string_val: "C"
        string_val: "C"
        string_val: "S"
        string_val: "S"
        string_val: "S"
        string_val: "S"
        string_val: "S"
        string_val: "S"
        string_val: "C"
        string_val: "S"
        string_val: "C"
        string_val: "S"
        string_val: "S"
        string_val: "C"
        string_val: "S"
        string_val: "S"
        string_val: "Q"
        string_val: "S"
        string_val: "C"
        string_val: "S"
        string_val: "S"
        string_val: "Q"
        string_val: "C"
        string_val: "C"
        string_val: "S"
        string_val: "S"
        string_val: "C"
        string_val: "C"
        string_val: "S"
        string_val: "Q"
        string_val: "C"
        string_val: "S"
        string_val: "S"
        string_val: "S"
        string_val: "S"
        string_val: "S"
        string_val: "C"
        string_val: "S"
        string_val: "S"
        string_val: "Q"
        string_val: "S"
        string_val: "S"
        string_val: "S"
        string_val: "S"
        string_val: "S"
        string_val: "C"
        string_val: "S"
        string_val: "S"
        string_val: "S"
        string_val: "S"
        string_val: "S"
        string_val: "C"
        string_val: "S"
        string_val: "S"
        string_val: "S"
        string_val: "S"
        string_val: "S"
        string_val: "S"
        string_val: "C"
        string_val: "C"
        string_val: "S"
        string_val: "C"
        string_val: "S"
        string_val: "C"
        string_val: "S"
        string_val: "C"
        string_val: "S"
        string_val: "S"
        string_val: "S"
        string_val: "S"
        string_val: "S"
        string_val: "S"
        string_val: "C"
        string_val: "S"
        string_val: "S"
        string_val: "S"
        string_val: "S"
        string_val: "C"
        string_val: "S"
        string_val: "S"
        string_val: "S"
        string_val: "S"
        string_val: "S"
        string_val: "S"
        string_val: "S"
        string_val: "S"
        string_val: "S"
        string_val: "S"
        string_val: "C"
        string_val: "Q"
        string_val: "Q"
        string_val: "S"
        string_val: "Q"
        string_val: "S"
        string_val: "S"
        string_val: "S"
        string_val: "S"
        string_val: "S"
        string_val: "S"
        string_val: "S"
        string_val: "S"
        string_val: "S"
        string_val: "S"
        string_val: "S"
        string_val: "C"
        string_val: "S"
        string_val: "C"
        string_val: "S"
        string_val: "S"
        string_val: "S"
        string_val: "S"
        string_val: "S"
        string_val: "S"
        string_val: "S"
        string_val: "Q"
        string_val: "C"
        string_val: "Q"
        string_val: "S"
      }
    }
  }
}
node {
  name: "normalize_element/component_3"
  op: "Const"
  device: "/device:CPU:0"
  attr {
    key: "_output_shapes"
    value {
      list {
        shape {
          dim {
            size: 668
          }
        }
      }
    }
  }
  attr {
    key: "dtype"
    value {
      type: DT_DOUBLE
    }
  }
  attr {
    key: "value"
    value {
      tensor {
        dtype: DT_DOUBLE
        tensor_shape {
          dim {
            size: 668
          }
        }
        tensor_content: "…"
      }
    }
  }
}
node {
  name: "normalize_element/component_4"
  op: "Const"
  device: "/device:CPU:0"
  attr {
    key: "_output_shapes"
    value {
      list {
        shape {
          dim {
            size: 668
          }
        }
      }
    }
  }
  attr {
    key: "dtype"
    value {
      type: DT_INT64
    }
  }
  attr {
    key: "value"
    value {
      tensor {
        dtype: DT_INT64
        tensor_shape {
          dim {
            size: 668
          }
        }
        tensor_content: "…"
      }
    }
  }
}
node {
  name: "normalize_element/component_5"
  op: "Const"
  device: "/device:CPU:0"
  attr {
    key: "_output_shapes"
    value {
      list {
        shape {
          dim {
            size: 668
          }
        }
      }
    }
  }
  attr {
    key: "dtype"
    value {
      type: DT_INT64
    }
  }
  attr {
    key: "value"
    value {
      tensor {
        dtype: DT_INT64
        tensor_shape {
          dim {
            size: 668
          }
        }
        tensor_content: "…"
      }
    }
  }
}
node {
  name: "normalize_element/component_6"
  op: "Const"
  device: "/device:CPU:0"
  attr {
    key: "_output_shapes"
    value {
      list {
        shape {
          dim {
            size: 668
          }
        }
      }
    }
  }
  attr {
    key: "dtype"
    value {
      type: DT_STRING
    }
  }
  attr {
    key: "value"
    value {
      tensor {
        dtype: DT_STRING
        tensor_shape {
          dim {
            size: 668
          }
        }
        string_val: "male"
        string_val: "female"
        string_val: "female"
        string_val: "female"
        string_val: "male"
        string_val: "female"
        string_val: "male"
        string_val: "female"
        string_val: "female"
        string_val: "male"
        string_val: "female"
        string_val: "female"
        string_val: "male"
        string_val: "male"
        string_val: "male"
        string_val: "male"
        string_val: "male"
        string_val: "male"
        string_val: "male"
        string_val: "female"
        string_val: "female"
        string_val: "female"
        string_val: "female"
        string_val: "male"
        string_val: "male"
        string_val: "male"
        string_val: "male"
        string_val: "male"
        string_val: "female"
        string_val: "male"
        string_val: "male"
        string_val: "male"
        string_val: "female"
        string_val: "female"
        string_val: "male"
        string_val: "male"
        string_val: "male"
        string_val: "female"
        string_val: "male"
        string_val: "female"
        string_val: "female"
        string_val: "female"
        string_val: "male"
        string_val: "male"
        string_val: "male"
        string_val: "female"
        string_val: "male"
        string_val: "male"
        string_val: "male"
        string_val: "female"
        string_val: "female"
        string_val: "male"
        string_val: "female"
        string_val: "male"
        string_val: "male"
        string_val: "female"
        string_val: "female"
        string_val: "male"
        string_val: "male"
        string_val: "male"
        string_val: "male"
        string_val: "male"
        string_val: "male"
        string_val: "male"
        string_val: "female"
        string_val: "female"
        string_val: "male"
        string_val: "male"
        string_val: "female"
        string_val: "female"
        string_val: "male"
        string_val: "female"
        string_val: "male"
        string_val: "male"
        string_val: "male"
        string_val: "female"
        string_val: "male"
        string_val: "male"
        string_val: "male"
        string_val: "male"
        string_val: "male"
        string_val: "male"
        string_val: "female"
        string_val: "female"
        string_val: "male"
        string_val: "male"
        string_val: "male"
        string_val: "male"
        string_val: "male"
        string_val: "male"
        string_val: "female"
        string_val: "male"
        string_val: "female"
        string_val: "female"
        string_val: "male"
        string_val: "female"
        string_val: "female"
        string_val: "female"
        string_val: "female"
        string_val: "female"
        string_val: "female"
        string_val: "male"
        string_val: "male"
        string_val: "female"
        string_val: "female"
        string_val: "male"
        string_val: "female"
        string_val: "male"
        string_val: "female"
        string_val: "female"
        string_val: "male"
        string_val: "male"
        string_val: "female"
        string_val: "male"
        string_val: "male"
        string_val: "male"
        string_val: "male"
        string_val: "male"
        string_val: "female"
        string_val: "female"
        string_val: "male"
        string_val: "male"
        string_val: "male"
        string_val: "male"
        string_val: "male"
        string_val: "male"
        string_val: "male"
        string_val: "female"
        string_val: "male"
        string_val: "female"
        string_val: "male"
        string_val: "male"
        string_val: "male"
        string_val: "male"
        string_val: "male"
        string_val: "female"
        string_val: "male"
        string_val: "male"
        string_val: "female"
        string_val: "male"
        string_val: "male"
        string_val: "female"
        string_val: "male"
        string_val: "female"
        string_val: "male"
        string_val: "male"
        string_val: "male"
        string_val: "male"
        string_val: "male"
        string_val: "female"
        string_val: "male"
        string_val: "male"
        string_val: "male"
        string_val: "female"
        string_val: "female"
        string_val: "male"
        string_val: "female"
        string_val: "male"
        string_val: "male"
        string_val: "male"
        string_val: "male"
        string_val: "male"
        string_val: "male"
        string_val: "male"
        string_val: "male"
        string_val: "male"
        string_val: "female"
        string_val: "female"
        string_val: "male"
        string_val: "male"
        string_val: "male"
        string_val: "male"
        string_val: "male"
        string_val: "male"
        string_val: "female"
        string_val: "male"
        string_val: "male"
        string_val: "female"
        string_val: "male"
        string_val: "female"
        string_val: "male"
        string_val: "male"
        string_val: "male"
        string_val: "female"
        string_val: "female"
        string_val: "male"
        string_val: "male"
        string_val: "male"
        string_val: "female"
        string_val: "male"
        string_val: "male"
        string_val: "female"
        string_val: "female"
        string_val: "female"
        string_val: "female"
        string_val: "male"
        string_val: "female"
        string_val: "male"
        string_val: "male"
        string_val: "male"
        string_val: "female"
        string_val: "female"
        string_val: "male"
        string_val: "male"
        string_val: "male"
        string_val: "male"
        string_val: "female"
        string_val: "female"
        string_val: "male"
        string_val: "male"
        string_val: "male"
        string_val: "male"
        string_val: "female"
        string_val: "female"
        string_val: "female"
        string_val: "male"
        string_val: "male"
        string_val: "male"
        string_val: "female"
        string_val: "male"
        string_val: "female"
        string_val: "male"
        string_val: "female"
        string_val: "male"
        string_val: "female"
        string_val: "male"
        string_val: "female"
        string_val: "male"
        string_val: "male"
        string_val: "male"
        string_val: "female"
        string_val: "female"
        string_val: "male"
        string_val: "male"
        string_val: "male"
        string_val: "male"
        string_val: "female"
        string_val: "male"
        string_val: "female"
        string_val: "male"
        string_val: "male"
        string_val: "male"
        string_val: "female"
        string_val: "male"
        string_val: "male"
        string_val: "male"
        string_val: "female"
        string_val: "male"
        string_val: "female"
        string_val: "male"
        string_val: "female"
        string_val: "male"
        string_val: "female"
        string_val: "male"
        string_val: "female"
        string_val: "male"
        string_val: "female"
        string_val: "male"
        string_val: "male"
        string_val: "male"
        string_val: "male"
        string_val: "male"
        string_val: "male"
        string_val: "male"
        string_val: "male"
        string_val: "female"
        string_val: "male"
        string_val: "female"
        string_val: "male"
        string_val: "male"
        string_val: "male"
        string_val: "female"
        string_val: "male"
        string_val: "male"
        string_val: "male"
        string_val: "male"
        string_val: "female"
        string_val: "male"
        string_val: "female"
        string_val: "male"
        string_val: "male"
        string_val: "male"
        string_val: "male"
        string_val: "female"
        string_val: "male"
        string_val: "male"
        string_val: "male"
        string_val: "male"
        string_val: "male"
        string_val: "female"
        string_val: "male"
        string_val: "male"
        string_val: "male"
        string_val: "female"
        string_val: "male"
        string_val: "male"
        string_val: "male"
        string_val: "female"
        string_val: "male"
        string_val: "female"
        string_val: "female"
        string_val: "male"
        string_val: "male"
        string_val: "male"
        string_val: "female"
        string_val: "male"
        string_val: "male"
        string_val: "female"
        string_val: "male"
        string_val: "male"
        string_val: "male"
        string_val: "female"
        string_val: "male"
        string_val: "male"
        string_val: "male"
        string_val: "male"
        string_val: "male"
        string_val: "female"
        string_val: "female"
        string_val: "male"
        string_val: "female"
        string_val: "female"
        string_val: "female"
        string_val: "male"
        string_val: "female"
        string_val: "female"
        string_val: "male"
        string_val: "female"
        string_val: "female"
        string_val: "female"
        string_val: "female"
        string_val: "male"
        string_val: "female"
        string_val: "male"
        string_val: "female"
        string_val: "male"
        string_val: "male"
        string_val: "male"
        string_val: "female"
        string_val: "male"
        string_val: "male"
        string_val: "male"
        string_val: "female"
        string_val: "male"
        string_val: "male"
        string_val: "male"
        string_val: "female"
        string_val: "male"
        string_val: "male"
        string_val: "male"
        string_val: "male"
        string_val: "male"
        string_val: "female"
        string_val: "male"
        string_val: "female"
        string_val: "male"
        string_val: "male"
        string_val: "male"
        string_val: "female"
        string_val: "male"
        string_val: "male"
        string_val: "female"
        string_val: "male"
        string_val: "male"
        string_val: "male"
        string_val: "male"
        string_val: "male"
        string_val: "male"
        string_val: "male"
        string_val: "male"
        string_val: "male"
        string_val: "male"
        string_val: "male"
        string_val: "male"
        string_val: "male"
        string_val: "male"
        string_val: "female"
        string_val: "male"
        string_val: "male"
        string_val: "male"
        string_val: "male"
        string_val: "female"
        string_val: "male"
        string_val: "male"
        string_val: "female"
        string_val: "female"
        string_val: "female"
        string_val: "female"
        string_val: "male"
        string_val: "male"
        string_val: "male"
        string_val: "female"
        string_val: "male"
        string_val: "female"
        string_val: "female"
        string_val: "female"
        string_val: "male"
        string_val: "female"
        string_val: "male"
        string_val: "female"
        string_val: "male"
        string_val: "male"
        string_val: "female"
        string_val: "female"
        string_val: "male"
        string_val: "female"
        string_val: "female"
        string_val: "male"
        string_val: "male"
        string_val: "male"
        string_val: "female"
        string_val: "male"
        string_val: "female"
        string_val: "male"
        string_val: "male"
        string_val: "male"
        string_val: "female"
        string_val: "male"
        string_val: "male"
        string_val: "male"
        string_val: "male"
        string_val: "male"
        string_val: "male"
        string_val: "female"
        string_val: "male"
        string_val: "female"
        string_val: "female"
        string_val: "male"
        string_val: "male"
        string_val: "male"
        string_val: "male"
        string_val: "male"
        string_val: "male"
        string_val: "male"
        string_val: "male"
        string_val: "male"
        string_val: "male"
        string_val: "male"
        string_val: "male"
        string_val: "female"
        string_val: "male"
        string_val: "male"
        string_val: "female"
        string_val: "male"
        string_val: "male"
        string_val: "female"
        string_val: "male"
        string_val: "male"
        string_val: "male"
        string_val: "male"
        string_val: "male"
        string_val: "male"
        string_val: "male"
        string_val: "male"
        string_val: "male"
        string_val: "male"
        string_val: "male"
        string_val: "female"
        string_val: "male"
        string_val: "female"
        string_val: "female"
        string_val: "female"
        string_val: "female"
        string_val: "female"
        string_val: "male"
        string_val: "male"
        string_val: "female"
        string_val: "male"
        string_val: "female"
        string_val: "male"
        string_val: "male"
        string_val: "male"
        string_val: "male"
        string_val: "female"
        string_val: "male"
        string_val: "female"
        string_val: "female"
        string_val: "female"
        string_val: "male"
        string_val: "female"
        string_val: "male"
        string_val: "male"
        string_val: "female"
        string_val: "male"
        string_val: "male"
        string_val: "male"
        string_val: "female"
        string_val: "male"
        string_val: "male"
        string_val: "female"
        string_val: "male"
        string_val: "male"
        string_val: "male"
        string_val: "male"
        string_val: "male"
        string_val: "male"
        string_val: "female"
        string_val: "female"
        string_val: "male"
        string_val: "female"
        string_val: "male"
        string_val: "male"
        string_val: "male"
        string_val: "female"
        string_val: "female"
        string_val: "male"
        string_val: "female"
        string_val: "female"
        string_val: "female"
        string_val: "male"
        string_val: "male"
        string_val: "female"
        string_val: "male"
        string_val: "male"
        string_val: "male"
        string_val: "female"
        string_val: "male"
        string_val: "male"
        string_val: "male"
        string_val: "male"
        string_val: "female"
        string_val: "male"
        string_val: "male"
        string_val: "female"
        string_val: "male"
        string_val: "male"
        string_val: "male"
        string_val: "female"
        string_val: "female"
        string_val: "male"
        string_val: "male"
        string_val: "female"
        string_val: "female"
        string_val: "male"
        string_val: "male"
        string_val: "male"
        string_val: "male"
        string_val: "female"
        string_val: "female"
        string_val: "male"
        string_val: "male"
        string_val: "male"
        string_val: "female"
        string_val: "female"
        string_val: "male"
        string_val: "male"
        string_val: "male"
        string_val: "male"
        string_val: "female"
        string_val: "male"
        string_val: "female"
        string_val: "male"
        string_val: "female"
        string_val: "male"
        string_val: "male"
        string_val: "male"
        string_val: "male"
        string_val: "male"
        string_val: "female"
        string_val: "male"
        string_val: "female"
        string_val: "male"
        string_val: "male"
        string_val: "male"
        string_val: "female"
        string_val: "male"
        string_val: "male"
        string_val: "male"
        string_val: "female"
        string_val: "female"
        string_val: "male"
        string_val: "female"
        string_val: "male"
        string_val: "female"
        string_val: "male"
        string_val: "male"
        string_val: "male"
        string_val: "male"
        string_val: "male"
        string_val: "female"
        string_val: "male"
        string_val: "male"
        string_val: "male"
        string_val: "male"
        string_val: "female"
        string_val: "male"
        string_val: "male"
        string_val: "female"
        string_val: "male"
        string_val: "female"
        string_val: "male"
        string_val: "female"
        string_val: "male"
        string_val: "female"
        string_val: "female"
        string_val: "female"
        string_val: "male"
        string_val: "male"
        string_val: "male"
        string_val: "male"
        string_val: "female"
        string_val: "male"
        string_val: "male"
        string_val: "female"
        string_val: "male"
        string_val: "female"
        string_val: "female"
        string_val: "male"
        string_val: "female"
        string_val: "male"
        string_val: "male"
        string_val: "male"
        string_val: "female"
        string_val: "male"
        string_val: "male"
        string_val: "male"
        string_val: "male"
        string_val: "female"
        string_val: "male"
        string_val: "male"
        string_val: "female"
        string_val: "male"
        string_val: "female"
        string_val: "female"
        string_val: "male"
        string_val: "male"
        string_val: "female"
        string_val: "male"
        string_val: "male"
        string_val: "male"
        string_val: "female"
        string_val: "female"
        string_val: "male"
        string_val: "female"
        string_val: "male"
        string_val: "male"
        string_val: "male"
        string_val: "male"
        string_val: "female"
        string_val: "male"
        string_val: "female"
        string_val: "male"
        string_val: "male"
        string_val: "male"
        string_val: "male"
        string_val: "female"
        string_val: "male"
        string_val: "male"
        string_val: "male"
        string_val: "female"
        string_val: "female"
        string_val: "female"
        string_val: "female"
        string_val: "female"
        string_val: "female"
        string_val: "female"
        string_val: "male"
        string_val: "female"
        string_val: "male"
        string_val: "male"
        string_val: "male"
        string_val: "female"
        string_val: "female"
        string_val: "male"
        string_val: "female"
        string_val: "female"
        string_val: "male"
        string_val: "male"
      }
    }
  }
}
node {
  name: "normalize_element/component_7"
  op: "Const"
  device: "/device:CPU:0"
  attr {
    key: "_output_shapes"
    value {
      list {
        shape {
          dim {
            size: 668
          }
        }
      }
    }
  }
  attr {
    key: "dtype"
    value {
      type: DT_INT64
    }
  }
  attr {
    key: "value"
    value {
      tensor {
        dtype: DT_INT64
        tensor_shape {
          dim {
            size: 668
          }
        }
        tensor_content: "…"
      }
    }
  }
}
node {
  name: "normalize_element/component_8"
  op: "Const"
  device: "/device:CPU:0"
  attr {
    key: "_output_shapes"
    value {
      list {
        shape {
          dim {
            size: 668
          }
        }
      }
    }
  }
  attr {
    key: "dtype"
    value {
      type: DT_STRING
    }
  }
  attr {
    key: "value"
    value {
      tensor {
        dtype: DT_STRING
        tensor_shape {
          dim {
            size: 668
          }
        }
        string_val: "Y"
        string_val: "Y"
        string_val: "N"
        string_val: "N"
        string_val: "N"
        string_val: "Y"
        string_val: "N"
        string_val: "N"
        string_val: "Y"
        string_val: "Y"
        string_val: "Y"
        string_val: "N"
        string_val: "N"
        string_val: "Y"
        string_val: "Y"
        string_val: "N"
        string_val: "N"
        string_val: "N"
        string_val: "Y"
        string_val: "Y"
        string_val: "Y"
        string_val: "Y"
        string_val: "Y"
        string_val: "Y"
        string_val: "N"
        string_val: "N"
        string_val: "Y"
        string_val: "N"
        string_val: "Y"
        string_val: "N"
        string_val: "N"
        string_val: "N"
        string_val: "Y"
        string_val: "Y"
        string_val: "N"
        string_val: "N"
        string_val: "N"
        string_val: "N"
        string_val: "N"
        string_val: "N"
        string_val: "Y"
        string_val: "N"
        string_val: "N"
        string_val: "N"
        string_val: "N"
        string_val: "Y"
        string_val: "N"
        string_val: "N"
        string_val: "Y"
        string_val: "Y"
        string_val: "N"
        string_val: "N"
        string_val: "N"
        string_val: "N"
        string_val: "N"
        string_val: "N"
        string_val: "Y"
        string_val: "N"
        string_val: "N"
        string_val: "N"
        string_val: "N"
        string_val: "N"
        string_val: "N"
        string_val: "Y"
        string_val: "N"
        string_val: "Y"
        string_val: "N"
        string_val: "Y"
        string_val: "Y"
        string_val: "N"
        string_val: "Y"
        string_val: "N"
        string_val: "Y"
        string_val: "N"
        string_val: "N"
        string_val: "Y"
        string_val: "Y"
        string_val: "N"
        string_val: "N"
        string_val: "N"
        string_val: "Y"
        string_val: "N"
        string_val: "N"
        string_val: "N"
        string_val: "N"
        string_val: "N"
        string_val: "Y"
        string_val: "N"
        string_val: "Y"
        string_val: "N"
        string_val: "N"
        string_val: "N"
        string_val: "N"
        string_val: "Y"
        string_val: "N"
        string_val: "N"
        string_val: "Y"
        string_val: "N"
        string_val: "Y"
        string_val: "Y"
        string_val: "N"
        string_val: "N"
        string_val: "Y"
        string_val: "N"
        string_val: "Y"
        string_val: "N"
        string_val: "N"
        string_val: "N"
        string_val: "N"
        string_val: "Y"
        string_val: "N"
        string_val: "N"
        string_val: "N"
        string_val: "Y"
        string_val: "N"
        string_val: "Y"
        string_val: "N"
        string_val: "N"
        string_val: "Y"
        string_val: "Y"
        string_val: "N"
        string_val: "N"
        string_val: "N"
        string_val: "Y"
        string_val: "N"
        string_val: "Y"
        string_val: "N"
        string_val: "Y"
        string_val: "N"
        string_val: "N"
        string_val: "N"
        string_val: "N"
        string_val: "N"
        string_val: "Y"
        string_val: "Y"
        string_val: "N"
        string_val: "N"
        string_val: "Y"
        string_val: "Y"
        string_val: "N"
        string_val: "N"
        string_val: "N"
        string_val: "Y"
        string_val: "Y"
        string_val: "N"
        string_val: "N"
        string_val: "N"
        string_val: "N"
        string_val: "Y"
        string_val: "Y"
        string_val: "N"
        string_val: "N"
        string_val: "N"
        string_val: "N"
        string_val: "N"
        string_val: "Y"
        string_val: "N"
        string_val: "Y"
        string_val: "Y"
        string_val: "N"
        string_val: "N"
        string_val: "N"
        string_val: "Y"
        string_val: "N"
        string_val: "N"
        string_val: "N"
        string_val: "N"
        string_val: "N"
        string_val: "N"
        string_val: "Y"
        string_val: "N"
        string_val: "N"
        string_val: "N"
        string_val: "N"
        string_val: "Y"
        string_val: "N"
        string_val: "N"
        string_val: "N"
        string_val: "N"
        string_val: "Y"
        string_val: "N"
        string_val: "N"
        string_val: "Y"
        string_val: "N"
        string_val: "Y"
        string_val: "Y"
        string_val: "N"
        string_val: "N"
        string_val: "Y"
        string_val: "N"
        string_val: "Y"
        string_val: "Y"
        string_val: "Y"
        string_val: "Y"
        string_val: "N"
        string_val: "N"
        string_val: "N"
        string_val: "N"
        string_val: "N"
        string_val: "N"
        string_val: "Y"
        string_val: "Y"
        string_val: "N"
        string_val: "N"
        string_val: "N"
        string_val: "N"
        string_val: "Y"
        string_val: "Y"
        string_val: "N"
        string_val: "N"
        string_val: "N"
        string_val: "N"
        string_val: "Y"
        string_val: "N"
        string_val: "Y"
        string_val: "Y"
        string_val: "Y"
        string_val: "Y"
        string_val: "N"
        string_val: "N"
        string_val: "Y"
        string_val: "Y"
        string_val: "Y"
        string_val: "N"
        string_val: "Y"
        string_val: "Y"
        string_val: "Y"
        string_val: "N"
        string_val: "N"
        string_val: "Y"
        string_val: "Y"
        string_val: "Y"
        string_val: "N"
        string_val: "Y"
        string_val: "N"
        string_val: "Y"
        string_val: "N"
        string_val: "N"
        string_val: "Y"
        string_val: "N"
        string_val: "Y"
        string_val: "N"
        string_val: "N"
        string_val: "Y"
        string_val: "N"
        string_val: "N"
        string_val: "N"
        string_val: "Y"
        string_val: "N"
        string_val: "Y"
        string_val: "N"
        string_val: "N"
        string_val: "Y"
        string_val: "N"
        string_val: "Y"
        string_val: "N"
        string_val: "N"
        string_val: "N"
        string_val: "N"
        string_val: "Y"
        string_val: "N"
        string_val: "Y"
        string_val: "N"
        string_val: "N"
        string_val: "N"
        string_val: "Y"
        string_val: "N"
        string_val: "Y"
        string_val: "N"
        string_val: "Y"
        string_val: "N"
        string_val: "Y"
        string_val: "N"
        string_val: "N"
        string_val: "N"
        string_val: "Y"
        string_val: "N"
        string_val: "N"
        string_val: "N"
        string_val: "Y"
        string_val: "Y"
        string_val: "N"
        string_val: "N"
        string_val: "N"
        string_val: "N"
        string_val: "N"
        string_val: "Y"
        string_val: "N"
        string_val: "N"
        string_val: "N"
        string_val: "Y"
        string_val: "N"
        string_val: "N"
        string_val: "N"
        string_val: "N"
        string_val: "N"
        string_val: "Y"
        string_val: "N"
        string_val: "N"
        string_val: "N"
        string_val: "N"
        string_val: "N"
        string_val: "Y"
        string_val: "N"
        string_val: "N"
        string_val: "Y"
        string_val: "N"
        string_val: "N"
        string_val: "Y"
        string_val: "Y"
        string_val: "N"
        string_val: "N"
        string_val: "N"
        string_val: "Y"
        string_val: "N"
        string_val: "Y"
        string_val: "N"
        string_val: "Y"
        string_val: "N"
        string_val: "N"
        string_val: "N"
        string_val: "N"
        string_val: "N"
        string_val: "N"
        string_val: "N"
        string_val: "Y"
        string_val: "N"
        string_val: "N"
        string_val: "N"
        string_val: "Y"
        string_val: "N"
        string_val: "N"
        string_val: "Y"
        string_val: "N"
        string_val: "N"
        string_val: "N"
        string_val: "N"
        string_val: "N"
        string_val: "N"
        string_val: "N"
        string_val: "N"
        string_val: "Y"
        string_val: "Y"
        string_val: "N"
        string_val: "N"
        string_val: "Y"
        string_val: "Y"
        string_val: "N"
        string_val: "Y"
        string_val: "Y"
        string_val: "N"
        string_val: "N"
        string_val: "N"
        string_val: "Y"
        string_val: "N"
        string_val: "N"
        string_val: "N"
        string_val: "N"
        string_val: "N"
        string_val: "N"
        string_val: "N"
        string_val: "Y"
        string_val: "N"
        string_val: "Y"
        string_val: "Y"
        string_val: "N"
        string_val: "Y"
        string_val: "N"
        string_val: "N"
        string_val: "Y"
        string_val: "Y"
        string_val: "N"
        string_val: "N"
        string_val: "Y"
        string_val: "N"
        string_val: "N"
        string_val: "Y"
        string_val: "Y"
        string_val: "N"
        string_val: "N"
        string_val: "N"
        string_val: "N"
        string_val: "N"
        string_val: "N"
        string_val: "N"
        string_val: "N"
        string_val: "N"
        string_val: "Y"
        string_val: "N"
        string_val: "N"
        string_val: "N"
        string_val: "N"
        string_val: "N"
        string_val: "Y"
        string_val: "Y"
        string_val: "Y"
        string_val: "N"
        string_val: "Y"
        string_val: "N"
        string_val: "N"
        string_val: "N"
        string_val: "N"
        string_val: "N"
        string_val: "N"
        string_val: "N"
        string_val: "N"
        string_val: "N"
        string_val: "N"
        string_val: "N"
        string_val: "N"
        string_val: "N"
        string_val: "N"
        string_val: "N"
        string_val: "N"
        string_val: "N"
        string_val: "N"
        string_val: "Y"
        string_val: "N"
        string_val: "N"
        string_val: "N"
        string_val: "N"
        string_val: "N"
        string_val: "N"
        string_val: "N"
        string_val: "N"
        string_val: "N"
        string_val: "Y"
        string_val: "Y"
        string_val: "N"
        string_val: "N"
        string_val: "Y"
        string_val: "Y"
        string_val: "N"
        string_val: "Y"
        string_val: "Y"
        string_val: "N"
        string_val: "Y"
        string_val: "Y"
        string_val: "N"
        string_val: "N"
        string_val: "N"
        string_val: "N"
        string_val: "N"
        string_val: "Y"
        string_val: "Y"
        string_val: "Y"
        string_val: "N"
        string_val: "N"
        string_val: "Y"
        string_val: "N"
        string_val: "N"
        string_val: "N"
        string_val: "N"
        string_val: "N"
        string_val: "N"
        string_val: "N"
        string_val: "N"
        string_val: "Y"
        string_val: "Y"
        string_val: "N"
        string_val: "N"
        string_val: "N"
        string_val: "N"
        string_val: "Y"
        string_val: "Y"
        string_val: "N"
        string_val: "N"
        string_val: "N"
        string_val: "N"
        string_val: "Y"
        string_val: "N"
        string_val: "Y"
        string_val: "N"
        string_val: "N"
        string_val: "N"
        string_val: "Y"
        string_val: "Y"
        string_val: "N"
        string_val: "N"
        string_val: "N"
        string_val: "N"
        string_val: "N"
        string_val: "Y"
        string_val: "N"
        string_val: "N"
        string_val: "N"
        string_val: "Y"
        string_val: "N"
        string_val: "N"
        string_val: "N"
        string_val: "N"
        string_val: "N"
        string_val: "N"
        string_val: "N"
        string_val: "N"
        string_val: "N"
        string_val: "N"
        string_val: "Y"
        string_val: "Y"
        string_val: "N"
        string_val: "N"
        string_val: "N"
        string_val: "N"
        string_val: "N"
        string_val: "N"
        string_val: "Y"
        string_val: "Y"
        string_val: "Y"
        string_val: "Y"
        string_val: "N"
        string_val: "N"
        string_val: "Y"
        string_val: "N"
        string_val: "N"
        string_val: "N"
        string_val: "Y"
        string_val: "Y"
        string_val: "N"
        string_val: "N"
        string_val: "Y"
        string_val: "Y"
        string_val: "N"
        string_val: "Y"
        string_val: "Y"
        string_val: "N"
        string_val: "Y"
        string_val: "N"
        string_val: "Y"
        string_val: "Y"
        string_val: "N"
        string_val: "N"
        string_val: "N"
        string_val: "N"
        string_val: "N"
        string_val: "N"
        string_val: "N"
        string_val: "N"
        string_val: "Y"
        string_val: "N"
        string_val: "N"
        string_val: "N"
        string_val: "N"
        string_val: "Y"
        string_val: "N"
        string_val: "N"
        string_val: "N"
        string_val: "Y"
        string_val: "N"
        string_val: "Y"
        string_val: "Y"
        string_val: "N"
        string_val: "N"
        string_val: "Y"
        string_val: "N"
        string_val: "N"
        string_val: "N"
        string_val: "N"
        string_val: "N"
        string_val: "Y"
        string_val: "Y"
        string_val: "Y"
        string_val: "N"
        string_val: "N"
        string_val: "N"
        string_val: "N"
        string_val: "N"
        string_val: "N"
        string_val: "Y"
        string_val: "N"
        string_val: "N"
        string_val: "N"
        string_val: "N"
        string_val: "Y"
        string_val: "Y"
        string_val: "N"
        string_val: "N"
        string_val: "N"
        string_val: "N"
        string_val: "N"
        string_val: "N"
        string_val: "N"
        string_val: "N"
        string_val: "N"
        string_val: "N"
        string_val: "Y"
        string_val: "N"
        string_val: "N"
        string_val: "N"
        string_val: "Y"
        string_val: "N"
        string_val: "N"
        string_val: "N"
        string_val: "N"
        string_val: "N"
        string_val: "N"
        string_val: "N"
        string_val: "N"
        string_val: "N"
        string_val: "N"
        string_val: "N"
        string_val: "N"
        string_val: "N"
        string_val: "Y"
        string_val: "N"
        string_val: "Y"
        string_val: "Y"
        string_val: "Y"
        string_val: "N"
        string_val: "Y"
        string_val: "N"
        string_val: "Y"
        string_val: "N"
        string_val: "Y"
        string_val: "N"
        string_val: "N"
        string_val: "N"
        string_val: "N"
        string_val: "Y"
        string_val: "N"
        string_val: "Y"
        string_val: "N"
        string_val: "N"
        string_val: "N"
        string_val: "N"
        string_val: "Y"
        string_val: "N"
        string_val: "N"
        string_val: "N"
        string_val: "N"
        string_val: "Y"
        string_val: "Y"
        string_val: "N"
        string_val: "N"
        string_val: "Y"
        string_val: "N"
        string_val: "Y"
        string_val: "N"
        string_val: "Y"
        string_val: "N"
        string_val: "N"
        string_val: "N"
        string_val: "N"
        string_val: "Y"
        string_val: "N"
        string_val: "N"
        string_val: "N"
        string_val: "N"
        string_val: "N"
        string_val: "N"
        string_val: "Y"
        string_val: "Y"
        string_val: "Y"
        string_val: "N"
        string_val: "N"
        string_val: "Y"
        string_val: "N"
        string_val: "N"
        string_val: "N"
        string_val: "N"
        string_val: "N"
        string_val: "Y"
        string_val: "Y"
        string_val: "N"
        string_val: "N"
        string_val: "N"
        string_val: "N"
        string_val: "N"
        string_val: "Y"
      }
    }
  }
}
node {
  name: "normalize_element/component_9"
  op: "Const"
  device: "/device:CPU:0"
  attr {
    key: "_output_shapes"
    value {
      list {
        shape {
          dim {
            size: 668
          }
        }
      }
    }
  }
  attr {
    key: "dtype"
    value {
      type: DT_INT64
    }
  }
  attr {
    key: "value"
    value {
      tensor {
        dtype: DT_INT64
        tensor_shape {
          dim {
            size: 668
          }
        }
        tensor_content: "…"
      }
    }
  }
}
node {
  name: "TensorSliceDataset"
  op: "TensorSliceDataset"
  input: "normalize_element/component_0"
  input: "normalize_element/component_1"
  input: "normalize_element/component_2"
  input: "normalize_element/component_3"
  input: "normalize_element/component_4"
  input: "normalize_element/component_5"
  input: "normalize_element/component_6"
  input: "normalize_element/component_7"
  input: "normalize_element/component_8"
  input: "normalize_element/component_9"
  device: "/device:CPU:0"
  attr {
    key: "Toutput_types"
    value {
      list {
        type: DT_DOUBLE
        type: DT_STRING
        type: DT_STRING
        type: DT_DOUBLE
        type: DT_INT64
        type: DT_INT64
        type: DT_STRING
        type: DT_INT64
        type: DT_STRING
        type: DT_INT64
      }
    }
  }
  attr {
    key: "_output_shapes"
    value {
      list {
        shape {
        }
      }
    }
  }
  attr {
    key: "output_shapes"
    value {
      list {
        shape {
        }
        shape {
        }
        shape {
        }
        shape {
        }
        shape {
        }
        shape {
        }
        shape {
        }
        shape {
        }
        shape {
        }
        shape {
        }
      }
    }
  }
}
node {
  name: "buffer_size"
  op: "Const"
  device: "/device:CPU:0"
  attr {
    key: "_output_shapes"
    value {
      list {
        shape {
        }
      }
    }
  }
  attr {
    key: "dtype"
    value {
      type: DT_INT64
    }
  }
  attr {
    key: "value"
    value {
      tensor {
        dtype: DT_INT64
        tensor_shape {
        }
        int64_val: 10000
      }
    }
  }
}
node {
  name: "seed"
  op: "Const"
  device: "/device:CPU:0"
  attr {
    key: "_output_shapes"
    value {
      list {
        shape {
        }
      }
    }
  }
  attr {
    key: "dtype"
    value {
      type: DT_INT64
    }
  }
  attr {
    key: "value"
    value {
      tensor {
        dtype: DT_INT64
        tensor_shape {
        }
        int64_val: 0
      }
    }
  }
}
node {
  name: "seed2"
  op: "Const"
  device: "/device:CPU:0"
  attr {
    key: "_output_shapes"
    value {
      list {
        shape {
        }
      }
    }
  }
  attr {
    key: "dtype"
    value {
      type: DT_INT64
    }
  }
  attr {
    key: "value"
    value {
      tensor {
        dtype: DT_INT64
        tensor_shape {
        }
        int64_val: 0
      }
    }
  }
}
node {
  name: "ShuffleDataset"
  op: "ShuffleDataset"
  input: "TensorSliceDataset"
  input: "buffer_size"
  input: "seed"
  input: "seed2"
  device: "/device:CPU:0"
  attr {
    key: "_output_shapes"
    value {
      list {
        shape {
        }
      }
    }
  }
  attr {
    key: "output_shapes"
    value {
      list {
        shape {
        }
        shape {
        }
        shape {
        }
        shape {
        }
        shape {
        }
        shape {
        }
        shape {
        }
        shape {
        }
        shape {
        }
        shape {
        }
      }
    }
  }
  attr {
    key: "output_types"
    value {
      list {
        type: DT_DOUBLE
        type: DT_STRING
        type: DT_STRING
        type: DT_DOUBLE
        type: DT_INT64
        type: DT_INT64
        type: DT_STRING
        type: DT_INT64
        type: DT_STRING
        type: DT_INT64
      }
    }
  }
  attr {
    key: "reshuffle_each_iteration"
    value {
      b: true
    }
  }
}
node {
  name: "count"
  op: "Const"
  device: "/device:CPU:0"
  attr {
    key: "_output_shapes"
    value {
      list {
        shape {
        }
      }
    }
  }
  attr {
    key: "dtype"
    value {
      type: DT_INT64
    }
  }
  attr {
    key: "value"
    value {
      tensor {
        dtype: DT_INT64
        tensor_shape {
        }
        int64_val: 100
      }
    }
  }
}
node {
  name: "RepeatDataset"
  op: "RepeatDataset"
  input: "ShuffleDataset"
  input: "count"
  device: "/device:CPU:0"
  attr {
    key: "_output_shapes"
    value {
      list {
        shape {
        }
      }
    }
  }
  attr {
    key: "output_shapes"
    value {
      list {
        shape {
        }
        shape {
        }
        shape {
        }
        shape {
        }
        shape {
        }
        shape {
        }
        shape {
        }
        shape {
        }
        shape {
        }
        shape {
        }
      }
    }
  }
  attr {
    key: "output_types"
    value {
      list {
        type: DT_DOUBLE
        type: DT_STRING
        type: DT_STRING
        type: DT_DOUBLE
        type: DT_INT64
        type: DT_INT64
        type: DT_STRING
        type: DT_INT64
        type: DT_STRING
        type: DT_INT64
      }
    }
  }
}
node {
  name: "batch_size"
  op: "Const"
  device: "/device:CPU:0"
  attr {
    key: "_output_shapes"
    value {
      list {
        shape {
        }
      }
    }
  }
  attr {
    key: "dtype"
    value {
      type: DT_INT64
    }
  }
  attr {
    key: "value"
    value {
      tensor {
        dtype: DT_INT64
        tensor_shape {
        }
        int64_val: 32
      }
    }
  }
}
node {
  name: "drop_remainder"
  op: "Const"
  device: "/device:CPU:0"
  attr {
    key: "_output_shapes"
    value {
      list {
        shape {
        }
      }
    }
  }
  attr {
    key: "dtype"
    value {
      type: DT_BOOL
    }
  }
  attr {
    key: "value"
    value {
      tensor {
        dtype: DT_BOOL
        tensor_shape {
        }
        bool_val: false
      }
    }
  }
}
node {
  name: "BatchDatasetV2"
  op: "BatchDatasetV2"
  input: "RepeatDataset"
  input: "batch_size"
  input: "drop_remainder"
  device: "/device:CPU:0"
  attr {
    key: "_output_shapes"
    value {
      list {
        shape {
        }
      }
    }
  }
  attr {
    key: "output_shapes"
    value {
      list {
        shape {
          dim {
            size: -1
          }
        }
        shape {
          dim {
            size: -1
          }
        }
        shape {
          dim {
            size: -1
          }
        }
        shape {
          dim {
            size: -1
          }
        }
        shape {
          dim {
            size: -1
          }
        }
        shape {
          dim {
            size: -1
          }
        }
        shape {
          dim {
            size: -1
          }
        }
        shape {
          dim {
            size: -1
          }
        }
        shape {
          dim {
            size: -1
          }
        }
        shape {
          dim {
            size: -1
          }
        }
      }
    }
  }
  attr {
    key: "output_types"
    value {
      list {
        type: DT_DOUBLE
        type: DT_STRING
        type: DT_STRING
        type: DT_DOUBLE
        type: DT_INT64
        type: DT_INT64
        type: DT_STRING
        type: DT_INT64
        type: DT_STRING
        type: DT_INT64
      }
    }
  }
  attr {
    key: "parallel_copy"
    value {
      b: false
    }
  }
}
node {
  name: "optimizations"
  op: "Const"
  attr {
    key: "_output_shapes"
    value {
      list {
        shape {
          dim {
            size: 3
          }
        }
      }
    }
  }
  attr {
    key: "dtype"
    value {
      type: DT_STRING
    }
  }
  attr {
    key: "value"
    value {
      tensor {
        dtype: DT_STRING
        tensor_shape {
          dim {
            size: 3
          }
        }
        string_val: "map_and_batch_fusion"
        string_val: "noop_elimination"
        string_val: "shuffle_and_repeat_fusion"
      }
    }
  }
}
node {
  name: "OptimizeDataset"
  op: "OptimizeDataset"
  input: "BatchDatasetV2"
  input: "optimizations"
  attr {
    key: "_output_shapes"
    value {
      list {
        shape {
        }
      }
    }
  }
  attr {
    key: "optimization_configs"
    value {
      list {
        s: "map_vectorization:use_choose_fastest:false"
      }
    }
  }
  attr {
    key: "output_shapes"
    value {
      list {
        shape {
          dim {
            size: -1
          }
        }
        shape {
          dim {
            size: -1
          }
        }
        shape {
          dim {
            size: -1
          }
        }
        shape {
          dim {
            size: -1
          }
        }
        shape {
          dim {
            size: -1
          }
        }
        shape {
          dim {
            size: -1
          }
        }
        shape {
          dim {
            size: -1
          }
        }
        shape {
          dim {
            size: -1
          }
        }
        shape {
          dim {
            size: -1
          }
        }
        shape {
          dim {
            size: -1
          }
        }
      }
    }
  }
  attr {
    key: "output_types"
    value {
      list {
        type: DT_DOUBLE
        type: DT_STRING
        type: DT_STRING
        type: DT_DOUBLE
        type: DT_INT64
        type: DT_INT64
        type: DT_STRING
        type: DT_INT64
        type: DT_STRING
        type: DT_INT64
      }
    }
  }
}
node {
  name: "ModelDataset"
  op: "ModelDataset"
  input: "OptimizeDataset"
  attr {
    key: "_output_shapes"
    value {
      list {
        shape {
        }
      }
    }
  }
  attr {
    key: "algorithm"
    value {
      i: 0
    }
  }
  attr {
    key: "cpu_budget"
    value {
      i: 0
    }
  }
  attr {
    key: "output_shapes"
    value {
      list {
        shape {
          dim {
            size: -1
          }
        }
        shape {
          dim {
            size: -1
          }
        }
        shape {
          dim {
            size: -1
          }
        }
        shape {
          dim {
            size: -1
          }
        }
        shape {
          dim {
            size: -1
          }
        }
        shape {
          dim {
            size: -1
          }
        }
        shape {
          dim {
            size: -1
          }
        }
        shape {
          dim {
            size: -1
          }
        }
        shape {
          dim {
            size: -1
          }
        }
        shape {
          dim {
            size: -1
          }
        }
      }
    }
  }
  attr {
    key: "output_types"
    value {
      list {
        type: DT_DOUBLE
        type: DT_STRING
        type: DT_STRING
        type: DT_DOUBLE
        type: DT_INT64
        type: DT_INT64
        type: DT_STRING
        type: DT_INT64
        type: DT_STRING
        type: DT_INT64
      }
    }
  }
}
node {
  name: "IteratorV2"
  op: "IteratorV2"
  attr {
    key: "_output_shapes"
    value {
      list {
        shape {
        }
      }
    }
  }
  attr {
    key: "container"
    value {
      s: ""
    }
  }
  attr {
    key: "output_shapes"
    value {
      list {
        shape {
          dim {
            size: -1
          }
        }
        shape {
          dim {
            size: -1
          }
        }
        shape {
          dim {
            size: -1
          }
        }
        shape {
          dim {
            size: -1
          }
        }
        shape {
          dim {
            size: -1
          }
        }
        shape {
          dim {
            size: -1
          }
        }
        shape {
          dim {
            size: -1
          }
        }
        shape {
          dim {
            size: -1
          }
        }
        shape {
          dim {
            size: -1
          }
        }
        shape {
          dim {
            size: -1
          }
        }
      }
    }
  }
  attr {
    key: "output_types"
    value {
      list {
        type: DT_DOUBLE
        type: DT_STRING
        type: DT_STRING
        type: DT_DOUBLE
        type: DT_INT64
        type: DT_INT64
        type: DT_STRING
        type: DT_INT64
        type: DT_STRING
        type: DT_INT64
      }
    }
  }
  attr {
    key: "shared_name"
    value {
      s: ""
    }
  }
}
node {
  name: "MakeIterator"
  op: "MakeIterator"
  input: "ModelDataset"
  input: "IteratorV2"
  attr {
    key: "_class"
    value {
      list {
        s: "loc:@IteratorV2"
      }
    }
  }
}
node {
  name: "IteratorToStringHandle"
  op: "IteratorToStringHandle"
  input: "IteratorV2"
  attr {
    key: "_output_shapes"
    value {
      list {
        shape {
        }
      }
    }
  }
}
node {
  name: "IteratorGetNext"
  op: "IteratorGetNext"
  input: "IteratorV2"
  attr {
    key: "_output_shapes"
    value {
      list {
        shape {
          dim {
            size: -1
          }
        }
        shape {
          dim {
            size: -1
          }
        }
        shape {
          dim {
            size: -1
          }
        }
        shape {
          dim {
            size: -1
          }
        }
        shape {
          dim {
            size: -1
          }
        }
        shape {
          dim {
            size: -1
          }
        }
        shape {
          dim {
            size: -1
          }
        }
        shape {
          dim {
            size: -1
          }
        }
        shape {
          dim {
            size: -1
          }
        }
        shape {
          dim {
            size: -1
          }
        }
      }
    }
  }
  attr {
    key: "output_shapes"
    value {
      list {
        shape {
          dim {
            size: -1
          }
        }
        shape {
          dim {
            size: -1
          }
        }
        shape {
          dim {
            size: -1
          }
        }
        shape {
          dim {
            size: -1
          }
        }
        shape {
          dim {
            size: -1
          }
        }
        shape {
          dim {
            size: -1
          }
        }
        shape {
          dim {
            size: -1
          }
        }
        shape {
          dim {
            size: -1
          }
        }
        shape {
          dim {
            size: -1
          }
        }
        shape {
          dim {
            size: -1
          }
        }
      }
    }
  }
  attr {
    key: "output_types"
    value {
      list {
        type: DT_DOUBLE
        type: DT_STRING
        type: DT_STRING
        type: DT_DOUBLE
        type: DT_INT64
        type: DT_INT64
        type: DT_STRING
        type: DT_INT64
        type: DT_STRING
        type: DT_INT64
      }
    }
  }
}
node {
  name: "linear/linear_model/Cast"
  op: "Cast"
  input: "IteratorGetNext"
  attr {
    key: "DstT"
    value {
      type: DT_FLOAT
    }
  }
  attr {
    key: "SrcT"
    value {
      type: DT_DOUBLE
    }
  }
  attr {
    key: "Truncate"
    value {
      b: false
    }
  }
  attr {
    key: "_output_shapes"
    value {
      list {
        shape {
          dim {
            size: -1
          }
        }
      }
    }
  }
}
node {
  name: "linear/linear_model/Cast_1"
  op: "Cast"
  input: "IteratorGetNext:3"
  attr {
    key: "DstT"
    value {
      type: DT_FLOAT
    }
  }
  attr {
    key: "SrcT"
    value {
      type: DT_DOUBLE
    }
  }
  attr {
    key: "Truncate"
    value {
      b: false
    }
  }
  attr {
    key: "_output_shapes"
    value {
      list {
        shape {
          dim {
            size: -1
          }
        }
      }
    }
  }
}
node {
  name: "linear/linear_model/Age/weights/part_0/Initializer/zeros"
  op: "Const"
  attr {
    key: "_class"
    value {
      list {
        s: "loc:@linear/linear_model/Age/weights/part_0"
      }
    }
  }
  attr {
    key: "_output_shapes"
    value {
      list {
        shape {
          dim {
            size: 1
          }
          dim {
            size: 1
          }
        }
      }
    }
  }
  attr {
    key: "dtype"
    value {
      type: DT_FLOAT
    }
  }
  attr {
    key: "value"
    value {
      tensor {
        dtype: DT_FLOAT
        tensor_shape {
          dim {
            size: 1
          }
          dim {
            size: 1
          }
        }
        float_val: 0.0
      }
    }
  }
}
node {
  name: "linear/linear_model/Age/weights/part_0"
  op: "VarHandleOp"
  attr {
    key: "_class"
    value {
      list {
        s: "loc:@linear/linear_model/Age/weights/part_0"
      }
    }
  }
  attr {
    key: "_output_shapes"
    value {
      list {
        shape {
        }
      }
    }
  }
  attr {
    key: "container"
    value {
      s: ""
    }
  }
  attr {
    key: "dtype"
    value {
      type: DT_FLOAT
    }
  }
  attr {
    key: "shape"
    value {
      shape {
        dim {
          size: 1
        }
        dim {
          size: 1
        }
      }
    }
  }
  attr {
    key: "shared_name"
    value {
      s: "linear/linear_model/Age/weights/part_0"
    }
  }
}
node {
  name: "linear/linear_model/Age/weights/part_0/IsInitialized/VarIsInitializedOp"
  op: "VarIsInitializedOp"
  input: "linear/linear_model/Age/weights/part_0"
  attr {
    key: "_output_shapes"
    value {
      list {
        shape {
        }
      }
    }
  }
}
node {
  name: "linear/linear_model/Age/weights/part_0/Assign"
  op: "AssignVariableOp"
  input: "linear/linear_model/Age/weights/part_0"
  input: "linear/linear_model/Age/weights/part_0/Initializer/zeros"
  attr {
    key: "dtype"
    value {
      type: DT_FLOAT
    }
  }
}
node {
  name: "linear/linear_model/Age/weights/part_0/Read/ReadVariableOp"
  op: "ReadVariableOp"
  input: "linear/linear_model/Age/weights/part_0"
  attr {
    key: "_output_shapes"
    value {
      list {
        shape {
          dim {
            size: 1
          }
          dim {
            size: 1
          }
        }
      }
    }
  }
  attr {
    key: "dtype"
    value {
      type: DT_FLOAT
    }
  }
}
node {
  name: "linear/linear_model/Cabin_indicator/weights/part_0/Initializer/zeros"
  op: "Const"
  attr {
    key: "_class"
    value {
      list {
        s: "loc:@linear/linear_model/Cabin_indicator/weights/part_0"
      }
    }
  }
  attr {
    key: "_output_shapes"
    value {
      list {
        shape {
          dim {
            size: 9
          }
          dim {
            size: 1
          }
        }
      }
    }
  }
  attr {
    key: "dtype"
    value {
      type: DT_FLOAT
    }
  }
  attr {
    key: "value"
    value {
      tensor {
        dtype: DT_FLOAT
        tensor_shape {
          dim {
            size: 9
          }
          dim {
            size: 1
          }
        }
        float_val: 0.0
      }
    }
  }
}
node {
  name: "linear/linear_model/Cabin_indicator/weights/part_0"
  op: "VarHandleOp"
  attr {
    key: "_class"
    value {
      list {
        s: "loc:@linear/linear_model/Cabin_indicator/weights/part_0"
      }
    }
  }
  attr {
    key: "_output_shapes"
    value {
      list {
        shape {
        }
      }
    }
  }
  attr {
    key: "container"
    value {
      s: ""
    }
  }
  attr {
    key: "dtype"
    value {
      type: DT_FLOAT
    }
  }
  attr {
    key: "shape"
    value {
      shape {
        dim {
          size: 9
        }
        dim {
          size: 1
        }
      }
    }
  }
  attr {
    key: "shared_name"
    value {
      s: "linear/linear_model/Cabin_indicator/weights/part_0"
    }
  }
}
node {
  name: "linear/linear_model/Cabin_indicator/weights/part_0/IsInitialized/VarIsInitializedOp"
  op: "VarIsInitializedOp"
  input: "linear/linear_model/Cabin_indicator/weights/part_0"
  attr {
    key: "_output_shapes"
    value {
      list {
        shape {
        }
      }
    }
  }
}
node {
  name: "linear/linear_model/Cabin_indicator/weights/part_0/Assign"
  op: "AssignVariableOp"
  input: "linear/linear_model/Cabin_indicator/weights/part_0"
  input: "linear/linear_model/Cabin_indicator/weights/part_0/Initializer/zeros"
  attr {
    key: "dtype"
    value {
      type: DT_FLOAT
    }
  }
}
node {
  name: "linear/linear_model/Cabin_indicator/weights/part_0/Read/ReadVariableOp"
  op: "ReadVariableOp"
  input: "linear/linear_model/Cabin_indicator/weights/part_0"
  attr {
    key: "_output_shapes"
    value {
      list {
        shape {
          dim {
            size: 9
          }
          dim {
            size: 1
          }
        }
      }
    }
  }
  attr {
    key: "dtype"
    value {
      type: DT_FLOAT
    }
  }
}
node {
  name: "linear/linear_model/Embarked_indicator/weights/part_0/Initializer/zeros"
  op: "Const"
  attr {
    key: "_class"
    value {
      list {
        s: "loc:@linear/linear_model/Embarked_indicator/weights/part_0"
      }
    }
  }
  attr {
    key: "_output_shapes"
    value {
      list {
        shape {
          dim {
            size: 4
          }
          dim {
            size: 1
          }
        }
      }
    }
  }
  attr {
    key: "dtype"
    value {
      type: DT_FLOAT
    }
  }
  attr {
    key: "value"
    value {
      tensor {
        dtype: DT_FLOAT
        tensor_shape {
          dim {
            size: 4
          }
          dim {
            size: 1
          }
        }
        float_val: 0.0
      }
    }
  }
}
node {
  name: "linear/linear_model/Embarked_indicator/weights/part_0"
  op: "VarHandleOp"
  attr {
    key: "_class"
    value {
      list {
        s: "loc:@linear/linear_model/Embarked_indicator/weights/part_0"
      }
    }
  }
  attr {
    key: "_output_shapes"
    value {
      list {
        shape {
        }
      }
    }
  }
  attr {
    key: "container"
    value {
      s: ""
    }
  }
  attr {
    key: "dtype"
    value {
      type: DT_FLOAT
    }
  }
  attr {
    key: "shape"
    value {
      shape {
        dim {
          size: 4
        }
        dim {
          size: 1
        }
      }
    }
  }
  attr {
    key: "shared_name"
    value {
      s: "linear/linear_model/Embarked_indicator/weights/part_0"
    }
  }
}
node {
  name: "linear/linear_model/Embarked_indicator/weights/part_0/IsInitialized/VarIsInitializedOp"
  op: "VarIsInitializedOp"
  input: "linear/linear_model/Embarked_indicator/weights/part_0"
  attr {
    key: "_output_shapes"
    value {
      list {
        shape {
        }
      }
    }
  }
}
node {
  name: "linear/linear_model/Embarked_indicator/weights/part_0/Assign"
  op: "AssignVariableOp"
  input: "linear/linear_model/Embarked_indicator/weights/part_0"
  input: "linear/linear_model/Embarked_indicator/weights/part_0/Initializer/zeros"
  attr {
    key: "dtype"
    value {
      type: DT_FLOAT
    }
  }
}
node {
  name: "linear/linear_model/Embarked_indicator/weights/part_0/Read/ReadVariableOp"
  op: "ReadVariableOp"
  input: "linear/linear_model/Embarked_indicator/weights/part_0"
  attr {
    key: "_output_shapes"
    value {
      list {
        shape {
          dim {
            size: 4
          }
          dim {
            size: 1
          }
        }
      }
    }
  }
  attr {
    key: "dtype"
    value {
      type: DT_FLOAT
    }
  }
}
node {
  name: "linear/linear_model/Fare/weights/part_0/Initializer/zeros"
  op: "Const"
  attr {
    key: "_class"
    value {
      list {
        s: "loc:@linear/linear_model/Fare/weights/part_0"
      }
    }
  }
  attr {
    key: "_output_shapes"
    value {
      list {
        shape {
          dim {
            size: 1
          }
          dim {
            size: 1
          }
        }
      }
    }
  }
  attr {
    key: "dtype"
    value {
      type: DT_FLOAT
    }
  }
  attr {
    key: "value"
    value {
      tensor {
        dtype: DT_FLOAT
        tensor_shape {
          dim {
            size: 1
          }
          dim {
            size: 1
          }
        }
        float_val: 0.0
      }
    }
  }
}
node {
  name: "linear/linear_model/Fare/weights/part_0"
  op: "VarHandleOp"
  attr {
    key: "_class"
    value {
      list {
        s: "loc:@linear/linear_model/Fare/weights/part_0"
      }
    }
  }
  attr {
    key: "_output_shapes"
    value {
      list {
        shape {
        }
      }
    }
  }
  attr {
    key: "container"
    value {
      s: ""
    }
  }
  attr {
    key: "dtype"
    value {
      type: DT_FLOAT
    }
  }
  attr {
    key: "shape"
    value {
      shape {
        dim {
          size: 1
        }
        dim {
          size: 1
        }
      }
    }
  }
  attr {
    key: "shared_name"
    value {
      s: "linear/linear_model/Fare/weights/part_0"
    }
  }
}
node {
  name: "linear/linear_model/Fare/weights/part_0/IsInitialized/VarIsInitializedOp"
  op: "VarIsInitializedOp"
  input: "linear/linear_model/Fare/weights/part_0"
  attr {
    key: "_output_shapes"
    value {
      list {
        shape {
        }
      }
    }
  }
}
node {
  name: "linear/linear_model/Fare/weights/part_0/Assign"
  op: "AssignVariableOp"
  input: "linear/linear_model/Fare/weights/part_0"
  input: "linear/linear_model/Fare/weights/part_0/Initializer/zeros"
  attr {
    key: "dtype"
    value {
      type: DT_FLOAT
    }
  }
}
node {
  name: "linear/linear_model/Fare/weights/part_0/Read/ReadVariableOp"
  op: "ReadVariableOp"
  input: "linear/linear_model/Fare/weights/part_0"
  attr {
    key: "_output_shapes"
    value {
      list {
        shape {
          dim {
            size: 1
          }
          dim {
            size: 1
          }
        }
      }
    }
  }
  attr {
    key: "dtype"
    value {
      type: DT_FLOAT
    }
  }
}
node {
  name: "linear/linear_model/Parch_indicator/weights/part_0/Initializer/zeros"
  op: "Const"
  attr {
    key: "_class"
    value {
      list {
        s: "loc:@linear/linear_model/Parch_indicator/weights/part_0"
      }
    }
  }
  attr {
    key: "_output_shapes"
    value {
      list {
        shape {
          dim {
            size: 7
          }
          dim {
            size: 1
          }
        }
      }
    }
  }
  attr {
    key: "dtype"
    value {
      type: DT_FLOAT
    }
  }
  attr {
    key: "value"
    value {
      tensor {
        dtype: DT_FLOAT
        tensor_shape {
          dim {
            size: 7
          }
          dim {
            size: 1
          }
        }
        float_val: 0.0
      }
    }
  }
}
node {
  name: "linear/linear_model/Parch_indicator/weights/part_0"
  op: "VarHandleOp"
  attr {
    key: "_class"
    value {
      list {
        s: "loc:@linear/linear_model/Parch_indicator/weights/part_0"
      }
    }
  }
  attr {
    key: "_output_shapes"
    value {
      list {
        shape {
        }
      }
    }
  }
  attr {
    key: "container"
    value {
      s: ""
    }
  }
  attr {
    key: "dtype"
    value {
      type: DT_FLOAT
    }
  }
  attr {
    key: "shape"
    value {
      shape {
        dim {
          size: 7
        }
        dim {
          size: 1
        }
      }
    }
  }
  attr {
    key: "shared_name"
    value {
      s: "linear/linear_model/Parch_indicator/weights/part_0"
    }
  }
}
node {
  name: "linear/linear_model/Parch_indicator/weights/part_0/IsInitialized/VarIsInitializedOp"
  op: "VarIsInitializedOp"
  input: "linear/linear_model/Parch_indicator/weights/part_0"
  attr {
    key: "_output_shapes"
    value {
      list {
        shape {
        }
      }
    }
  }
}
node {
  name: "linear/linear_model/Parch_indicator/weights/part_0/Assign"
  op: "AssignVariableOp"
  input: "linear/linear_model/Parch_indicator/weights/part_0"
  input: "linear/linear_model/Parch_indicator/weights/part_0/Initializer/zeros"
  attr {
    key: "dtype"
    value {
      type: DT_FLOAT
    }
  }
}
node {
  name: "linear/linear_model/Parch_indicator/weights/part_0/Read/ReadVariableOp"
  op: "ReadVariableOp"
  input: "linear/linear_model/Parch_indicator/weights/part_0"
  attr {
    key: "_output_shapes"
    value {
      list {
        shape {
          dim {
            size: 7
          }
          dim {
            size: 1
          }
        }
      }
    }
  }
  attr {
    key: "dtype"
    value {
      type: DT_FLOAT
    }
  }
}
node {
  name: "linear/linear_model/Pclass_indicator/weights/part_0/Initializer/zeros"
  op: "Const"
  attr {
    key: "_class"
    value {
      list {
        s: "loc:@linear/linear_model/Pclass_indicator/weights/part_0"
      }
    }
  }
  attr {
    key: "_output_shapes"
    value {
      list {
        shape {
          dim {
            size: 3
          }
          dim {
            size: 1
          }
        }
      }
    }
  }
  attr {
    key: "dtype"
    value {
      type: DT_FLOAT
    }
  }
  attr {
    key: "value"
    value {
      tensor {
        dtype: DT_FLOAT
        tensor_shape {
          dim {
            size: 3
          }
          dim {
            size: 1
          }
        }
        float_val: 0.0
      }
    }
  }
}
node {
  name: "linear/linear_model/Pclass_indicator/weights/part_0"
  op: "VarHandleOp"
  attr {
    key: "_class"
    value {
      list {
        s: "loc:@linear/linear_model/Pclass_indicator/weights/part_0"
      }
    }
  }
  attr {
    key: "_output_shapes"
    value {
      list {
        shape {
        }
      }
    }
  }
  attr {
    key: "container"
    value {
      s: ""
    }
  }
  attr {
    key: "dtype"
    value {
      type: DT_FLOAT
    }
  }
  attr {
    key: "shape"
    value {
      shape {
        dim {
          size: 3
        }
        dim {
          size: 1
        }
      }
    }
  }
  attr {
    key: "shared_name"
    value {
      s: "linear/linear_model/Pclass_indicator/weights/part_0"
    }
  }
}
node {
  name: "linear/linear_model/Pclass_indicator/weights/part_0/IsInitialized/VarIsInitializedOp"
  op: "VarIsInitializedOp"
  input: "linear/linear_model/Pclass_indicator/weights/part_0"
  attr {
    key: "_output_shapes"
    value {
      list {
        shape {
        }
      }
    }
  }
}
node {
  name: "linear/linear_model/Pclass_indicator/weights/part_0/Assign"
  op: "AssignVariableOp"
  input: "linear/linear_model/Pclass_indicator/weights/part_0"
  input: "linear/linear_model/Pclass_indicator/weights/part_0/Initializer/zeros"
  attr {
    key: "dtype"
    value {
      type: DT_FLOAT
    }
  }
}
node {
  name: "linear/linear_model/Pclass_indicator/weights/part_0/Read/ReadVariableOp"
  op: "ReadVariableOp"
  input: "linear/linear_model/Pclass_indicator/weights/part_0"
  attr {
    key: "_output_shapes"
    value {
      list {
        shape {
          dim {
            size: 3
          }
          dim {
            size: 1
          }
        }
      }
    }
  }
  attr {
    key: "dtype"
    value {
      type: DT_FLOAT
    }
  }
}
node {
  name: "linear/linear_model/Sex_indicator/weights/part_0/Initializer/zeros"
  op: "Const"
  attr {
    key: "_class"
    value {
      list {
        s: "loc:@linear/linear_model/Sex_indicator/weights/part_0"
      }
    }
  }
  attr {
    key: "_output_shapes"
    value {
      list {
        shape {
          dim {
            size: 2
          }
          dim {
            size: 1
          }
        }
      }
    }
  }
  attr {
    key: "dtype"
    value {
      type: DT_FLOAT
    }
  }
  attr {
    key: "value"
    value {
      tensor {
        dtype: DT_FLOAT
        tensor_shape {
          dim {
            size: 2
          }
          dim {
            size: 1
          }
        }
        float_val: 0.0
      }
    }
  }
}
node {
  name: "linear/linear_model/Sex_indicator/weights/part_0"
  op: "VarHandleOp"
  attr {
    key: "_class"
    value {
      list {
        s: "loc:@linear/linear_model/Sex_indicator/weights/part_0"
      }
    }
  }
  attr {
    key: "_output_shapes"
    value {
      list {
        shape {
        }
      }
    }
  }
  attr {
    key: "container"
    value {
      s: ""
    }
  }
  attr {
    key: "dtype"
    value {
      type: DT_FLOAT
    }
  }
  attr {
    key: "shape"
    value {
      shape {
        dim {
          size: 2
        }
        dim {
          size: 1
        }
      }
    }
  }
  attr {
    key: "shared_name"
    value {
      s: "linear/linear_model/Sex_indicator/weights/part_0"
    }
  }
}
node {
  name: "linear/linear_model/Sex_indicator/weights/part_0/IsInitialized/VarIsInitializedOp"
  op: "VarIsInitializedOp"
  input: "linear/linear_model/Sex_indicator/weights/part_0"
  attr {
    key: "_output_shapes"
    value {
      list {
        shape {
        }
      }
    }
  }
}
node {
  name: "linear/linear_model/Sex_indicator/weights/part_0/Assign"
  op: "AssignVariableOp"
  input: "linear/linear_model/Sex_indicator/weights/part_0"
  input: "linear/linear_model/Sex_indicator/weights/part_0/Initializer/zeros"
  attr {
    key: "dtype"
    value {
      type: DT_FLOAT
    }
  }
}
node {
  name: "linear/linear_model/Sex_indicator/weights/part_0/Read/ReadVariableOp"
  op: "ReadVariableOp"
  input: "linear/linear_model/Sex_indicator/weights/part_0"
  attr {
    key: "_output_shapes"
    value {
      list {
        shape {
          dim {
            size: 2
          }
          dim {
            size: 1
          }
        }
      }
    }
  }
  attr {
    key: "dtype"
    value {
      type: DT_FLOAT
    }
  }
}
node {
  name: "linear/linear_model/SibSp_indicator/weights/part_0/Initializer/zeros"
  op: "Const"
  attr {
    key: "_class"
    value {
      list {
        s: "loc:@linear/linear_model/SibSp_indicator/weights/part_0"
      }
    }
  }
  attr {
    key: "_output_shapes"
    value {
      list {
        shape {
          dim {
            size: 7
          }
          dim {
            size: 1
          }
        }
      }
    }
  }
  attr {
    key: "dtype"
    value {
      type: DT_FLOAT
    }
  }
  attr {
    key: "value"
    value {
      tensor {
        dtype: DT_FLOAT
        tensor_shape {
          dim {
            size: 7
          }
          dim {
            size: 1
          }
        }
        float_val: 0.0
      }
    }
  }
}
node {
  name: "linear/linear_model/SibSp_indicator/weights/part_0"
  op: "VarHandleOp"
  attr {
    key: "_class"
    value {
      list {
        s: "loc:@linear/linear_model/SibSp_indicator/weights/part_0"
      }
    }
  }
  attr {
    key: "_output_shapes"
    value {
      list {
        shape {
        }
      }
    }
  }
  attr {
    key: "container"
    value {
      s: ""
    }
  }
  attr {
    key: "dtype"
    value {
      type: DT_FLOAT
    }
  }
  attr {
    key: "shape"
    value {
      shape {
        dim {
          size: 7
        }
        dim {
          size: 1
        }
      }
    }
  }
  attr {
    key: "shared_name"
    value {
      s: "linear/linear_model/SibSp_indicator/weights/part_0"
    }
  }
}
node {
  name: "linear/linear_model/SibSp_indicator/weights/part_0/IsInitialized/VarIsInitializedOp"
  op: "VarIsInitializedOp"
  input: "linear/linear_model/SibSp_indicator/weights/part_0"
  attr {
    key: "_output_shapes"
    value {
      list {
        shape {
        }
      }
    }
  }
}
node {
  name: "linear/linear_model/SibSp_indicator/weights/part_0/Assign"
  op: "AssignVariableOp"
  input: "linear/linear_model/SibSp_indicator/weights/part_0"
  input: "linear/linear_model/SibSp_indicator/weights/part_0/Initializer/zeros"
  attr {
    key: "dtype"
    value {
      type: DT_FLOAT
    }
  }
}
node {
  name: "linear/linear_model/SibSp_indicator/weights/part_0/Read/ReadVariableOp"
  op: "ReadVariableOp"
  input: "linear/linear_model/SibSp_indicator/weights/part_0"
  attr {
    key: "_output_shapes"
    value {
      list {
        shape {
          dim {
            size: 7
          }
          dim {
            size: 1
          }
        }
      }
    }
  }
  attr {
    key: "dtype"
    value {
      type: DT_FLOAT
    }
  }
}
node {
  name: "linear/linear_model/alone_indicator/weights/part_0/Initializer/zeros"
  op: "Const"
  attr {
    key: "_class"
    value {
      list {
        s: "loc:@linear/linear_model/alone_indicator/weights/part_0"
      }
    }
  }
  attr {
    key: "_output_shapes"
    value {
      list {
        shape {
          dim {
            size: 2
          }
          dim {
            size: 1
          }
        }
      }
    }
  }
  attr {
    key: "dtype"
    value {
      type: DT_FLOAT
    }
  }
  attr {
    key: "value"
    value {
      tensor {
        dtype: DT_FLOAT
        tensor_shape {
          dim {
            size: 2
          }
          dim {
            size: 1
          }
        }
        float_val: 0.0
      }
    }
  }
}
node {
  name: "linear/linear_model/alone_indicator/weights/part_0"
  op: "VarHandleOp"
  attr {
    key: "_class"
    value {
      list {
        s: "loc:@linear/linear_model/alone_indicator/weights/part_0"
      }
    }
  }
  attr {
    key: "_output_shapes"
    value {
      list {
        shape {
        }
      }
    }
  }
  attr {
    key: "container"
    value {
      s: ""
    }
  }
  attr {
    key: "dtype"
    value {
      type: DT_FLOAT
    }
  }
  attr {
    key: "shape"
    value {
      shape {
        dim {
          size: 2
        }
        dim {
          size: 1
        }
      }
    }
  }
  attr {
    key: "shared_name"
    value {
      s: "linear/linear_model/alone_indicator/weights/part_0"
    }
  }
}
node {
  name: "linear/linear_model/alone_indicator/weights/part_0/IsInitialized/VarIsInitializedOp"
  op: "VarIsInitializedOp"
  input: "linear/linear_model/alone_indicator/weights/part_0"
  attr {
    key: "_output_shapes"
    value {
      list {
        shape {
        }
      }
    }
  }
}
node {
  name: "linear/linear_model/alone_indicator/weights/part_0/Assign"
  op: "AssignVariableOp"
  input: "linear/linear_model/alone_indicator/weights/part_0"
  input: "linear/linear_model/alone_indicator/weights/part_0/Initializer/zeros"
  attr {
    key: "dtype"
    value {
      type: DT_FLOAT
    }
  }
}
node {
  name: "linear/linear_model/alone_indicator/weights/part_0/Read/ReadVariableOp"
  op: "ReadVariableOp"
  input: "linear/linear_model/alone_indicator/weights/part_0"
  attr {
    key: "_output_shapes"
    value {
      list {
        shape {
          dim {
            size: 2
          }
          dim {
            size: 1
          }
        }
      }
    }
  }
  attr {
    key: "dtype"
    value {
      type: DT_FLOAT
    }
  }
}
node {
  name: "linear/linear_model/bias_weights/part_0/Initializer/zeros"
  op: "Const"
  attr {
    key: "_class"
    value {
      list {
        s: "loc:@linear/linear_model/bias_weights/part_0"
      }
    }
  }
  attr {
    key: "_output_shapes"
    value {
      list {
        shape {
          dim {
            size: 1
          }
        }
      }
    }
  }
  attr {
    key: "dtype"
    value {
      type: DT_FLOAT
    }
  }
  attr {
    key: "value"
    value {
      tensor {
        dtype: DT_FLOAT
        tensor_shape {
          dim {
            size: 1
          }
        }
        float_val: 0.0
      }
    }
  }
}
node {
  name: "linear/linear_model/bias_weights/part_0"
  op: "VarHandleOp"
  attr {
    key: "_class"
    value {
      list {
        s: "loc:@linear/linear_model/bias_weights/part_0"
      }
    }
  }
  attr {
    key: "_output_shapes"
    value {
      list {
        shape {
        }
      }
    }
  }
  attr {
    key: "container"
    value {
      s: ""
    }
  }
  attr {
    key: "dtype"
    value {
      type: DT_FLOAT
    }
  }
  attr {
    key: "shape"
    value {
      shape {
        dim {
          size: 1
        }
      }
    }
  }
  attr {
    key: "shared_name"
    value {
      s: "linear/linear_model/bias_weights/part_0"
    }
  }
}
node {
  name: "linear/linear_model/bias_weights/part_0/IsInitialized/VarIsInitializedOp"
  op: "VarIsInitializedOp"
  input: "linear/linear_model/bias_weights/part_0"
  attr {
    key: "_output_shapes"
    value {
      list {
        shape {
        }
      }
    }
  }
}
node {
  name: "linear/linear_model/bias_weights/part_0/Assign"
  op: "AssignVariableOp"
  input: "linear/linear_model/bias_weights/part_0"
  input: "linear/linear_model/bias_weights/part_0/Initializer/zeros"
  attr {
    key: "dtype"
    value {
      type: DT_FLOAT
    }
  }
}
node {
  name: "linear/linear_model/bias_weights/part_0/Read/ReadVariableOp"
  op: "ReadVariableOp"
  input: "linear/linear_model/bias_weights/part_0"
  attr {
    key: "_output_shapes"
    value {
      list {
        shape {
          dim {
            size: 1
          }
        }
      }
    }
  }
  attr {
    key: "dtype"
    value {
      type: DT_FLOAT
    }
  }
}
node {
  name: "linear/linear_model/linear_model/linear_model/Age/ExpandDims/dim"
  op: "Const"
  attr {
    key: "_output_shapes"
    value {
      list {
        shape {
        }
      }
    }
  }
  attr {
    key: "dtype"
    value {
      type: DT_INT32
    }
  }
  attr {
    key: "value"
    value {
      tensor {
        dtype: DT_INT32
        tensor_shape {
        }
        int_val: -1
      }
    }
  }
}
node {
  name: "linear/linear_model/linear_model/linear_model/Age/ExpandDims"
  op: "ExpandDims"
  input: "linear/linear_model/Cast"
  input: "linear/linear_model/linear_model/linear_model/Age/ExpandDims/dim"
  attr {
    key: "T"
    value {
      type: DT_FLOAT
    }
  }
  attr {
    key: "Tdim"
    value {
      type: DT_INT32
    }
  }
  attr {
    key: "_output_shapes"
    value {
      list {
        shape {
          dim {
            size: -1
          }
          dim {
            size: 1
          }
        }
      }
    }
  }
}
node {
  name: "linear/linear_model/linear_model/linear_model/Age/Shape"
  op: "Shape"
  input: "linear/linear_model/linear_model/linear_model/Age/ExpandDims"
  attr {
    key: "T"
    value {
      type: DT_FLOAT
    }
  }
  attr {
    key: "_output_shapes"
    value {
      list {
        shape {
          dim {
            size: 2
          }
        }
      }
    }
  }
  attr {
    key: "out_type"
    value {
      type: DT_INT32
    }
  }
}
node {
  name: "linear/linear_model/linear_model/linear_model/Age/strided_slice/stack"
  op: "Const"
  attr {
    key: "_output_shapes"
    value {
      list {
        shape {
          dim {
            size: 1
          }
        }
      }
    }
  }
  attr {
    key: "dtype"
    value {
      type: DT_INT32
    }
  }
  attr {
    key: "value"
    value {
      tensor {
        dtype: DT_INT32
        tensor_shape {
          dim {
            size: 1
          }
        }
        int_val: 0
      }
    }
  }
}
node {
  name: "linear/linear_model/linear_model/linear_model/Age/strided_slice/stack_1"
  op: "Const"
  attr {
    key: "_output_shapes"
    value {
      list {
        shape {
          dim {
            size: 1
          }
        }
      }
    }
  }
  attr {
    key: "dtype"
    value {
      type: DT_INT32
    }
  }
  attr {
    key: "value"
    value {
      tensor {
        dtype: DT_INT32
        tensor_shape {
          dim {
            size: 1
          }
        }
        int_val: 1
      }
    }
  }
}
node {
  name: "linear/linear_model/linear_model/linear_model/Age/strided_slice/stack_2"
  op: "Const"
  attr {
    key: "_output_shapes"
    value {
      list {
        shape {
          dim {
            size: 1
          }
        }
      }
    }
  }
  attr {
    key: "dtype"
    value {
      type: DT_INT32
    }
  }
  attr {
    key: "value"
    value {
      tensor {
        dtype: DT_INT32
        tensor_shape {
          dim {
            size: 1
          }
        }
        int_val: 1
      }
    }
  }
}
node {
  name: "linear/linear_model/linear_model/linear_model/Age/strided_slice"
  op: "StridedSlice"
  input: "linear/linear_model/linear_model/linear_model/Age/Shape"
  input: "linear/linear_model/linear_model/linear_model/Age/strided_slice/stack"
  input: "linear/linear_model/linear_model/linear_model/Age/strided_slice/stack_1"
  input: "linear/linear_model/linear_model/linear_model/Age/strided_slice/stack_2"
  attr {
    key: "Index"
    value {
      type: DT_INT32
    }
  }
  attr {
    key: "T"
    value {
      type: DT_INT32
    }
  }
  attr {
    key: "_output_shapes"
    value {
      list {
        shape {
        }
      }
    }
  }
  attr {
    key: "begin_mask"
    value {
      i: 0
    }
  }
  attr {
    key: "ellipsis_mask"
    value {
      i: 0
    }
  }
  attr {
    key: "end_mask"
    value {
      i: 0
    }
  }
  attr {
    key: "new_axis_mask"
    value {
      i: 0
    }
  }
  attr {
    key: "shrink_axis_mask"
    value {
      i: 1
    }
  }
}
node {
  name: "linear/linear_model/linear_model/linear_model/Age/Reshape/shape/1"
  op: "Const"
  attr {
    key: "_output_shapes"
    value {
      list {
        shape {
        }
      }
    }
  }
  attr {
    key: "dtype"
    value {
      type: DT_INT32
    }
  }
  attr {
    key: "value"
    value {
      tensor {
        dtype: DT_INT32
        tensor_shape {
        }
        int_val: 1
      }
    }
  }
}
node {
  name: "linear/linear_model/linear_model/linear_model/Age/Reshape/shape"
  op: "Pack"
  input: "linear/linear_model/linear_model/linear_model/Age/strided_slice"
  input: "linear/linear_model/linear_model/linear_model/Age/Reshape/shape/1"
  attr {
    key: "N"
    value {
      i: 2
    }
  }
  attr {
    key: "T"
    value {
      type: DT_INT32
    }
  }
  attr {
    key: "_output_shapes"
    value {
      list {
        shape {
          dim {
            size: 2
          }
        }
      }
    }
  }
  attr {
    key: "axis"
    value {
      i: 0
    }
  }
}
node {
  name: "linear/linear_model/linear_model/linear_model/Age/Reshape"
  op: "Reshape"
  input: "linear/linear_model/linear_model/linear_model/Age/ExpandDims"
  input: "linear/linear_model/linear_model/linear_model/Age/Reshape/shape"
  attr {
    key: "T"
    value {
      type: DT_FLOAT
    }
  }
  attr {
    key: "Tshape"
    value {
      type: DT_INT32
    }
  }
  attr {
    key: "_output_shapes"
    value {
      list {
        shape {
          dim {
            size: -1
          }
          dim {
            size: 1
          }
        }
      }
    }
  }
}
node {
  name: "linear/linear_model/Age/weights/ReadVariableOp"
  op: "ReadVariableOp"
  input: "linear/linear_model/Age/weights/part_0"
  attr {
    key: "_output_shapes"
    value {
      list {
        shape {
          dim {
            size: 1
          }
          dim {
            size: 1
          }
        }
      }
    }
  }
  attr {
    key: "dtype"
    value {
      type: DT_FLOAT
    }
  }
}
node {
  name: "linear/linear_model/Age/weights"
  op: "Identity"
  input: "linear/linear_model/Age/weights/ReadVariableOp"
  attr {
    key: "T"
    value {
      type: DT_FLOAT
    }
  }
  attr {
    key: "_output_shapes"
    value {
      list {
        shape {
          dim {
            size: 1
          }
          dim {
            size: 1
          }
        }
      }
    }
  }
}
node {
  name: "linear/linear_model/linear_model/linear_model/Age/weighted_sum"
  op: "MatMul"
  input: "linear/linear_model/linear_model/linear_model/Age/Reshape"
  input: "linear/linear_model/Age/weights"
  attr {
    key: "T"
    value {
      type: DT_FLOAT
    }
  }
  attr {
    key: "_output_shapes"
    value {
      list {
        shape {
          dim {
            size: -1
          }
          dim {
            size: 1
          }
        }
      }
    }
  }
  attr {
    key: "transpose_a"
    value {
      b: false
    }
  }
  attr {
    key: "transpose_b"
    value {
      b: false
    }
  }
}
node {
  name: "linear/linear_model/linear_model/linear_model/Cabin_indicator/ExpandDims/dim"
  op: "Const"
  attr {
    key: "_output_shapes"
    value {
      list {
        shape {
        }
      }
    }
  }
  attr {
    key: "dtype"
    value {
      type: DT_INT32
    }
  }
  attr {
    key: "value"
    value {
      tensor {
        dtype: DT_INT32
        tensor_shape {
        }
        int_val: -1
      }
    }
  }
}
node {
  name: "linear/linear_model/linear_model/linear_model/Cabin_indicator/ExpandDims"
  op: "ExpandDims"
  input: "IteratorGetNext:1"
  input: "linear/linear_model/linear_model/linear_model/Cabin_indicator/ExpandDims/dim"
  attr {
    key: "T"
    value {
      type: DT_STRING
    }
  }
  attr {
    key: "Tdim"
    value {
      type: DT_INT32
    }
  }
  attr {
    key: "_output_shapes"
    value {
      list {
        shape {
          dim {
            size: -1
          }
          dim {
            size: 1
          }
        }
      }
    }
  }
}
node {
  name: "linear/linear_model/linear_model/linear_model/Cabin_indicator/to_sparse_input/ignore_value/x"
  op: "Const"
  attr {
    key: "_output_shapes"
    value {
      list {
        shape {
        }
      }
    }
  }
  attr {
    key: "dtype"
    value {
      type: DT_STRING
    }
  }
  attr {
    key: "value"
    value {
      tensor {
        dtype: DT_STRING
        tensor_shape {
        }
        string_val: ""
      }
    }
  }
}
node {
  name: "linear/linear_model/linear_model/linear_model/Cabin_indicator/to_sparse_input/NotEqual"
  op: "NotEqual"
  input: "linear/linear_model/linear_model/linear_model/Cabin_indicator/ExpandDims"
  input: "linear/linear_model/linear_model/linear_model/Cabin_indicator/to_sparse_input/ignore_value/x"
  attr {
    key: "T"
    value {
      type: DT_STRING
    }
  }
  attr {
    key: "_output_shapes"
    value {
      list {
        shape {
          dim {
            size: -1
          }
          dim {
            size: 1
          }
        }
      }
    }
  }
  attr {
    key: "incompatible_shape_error"
    value {
      b: true
    }
  }
}
node {
  name: "linear/linear_model/linear_model/linear_model/Cabin_indicator/to_sparse_input/indices"
  op: "Where"
  input: "linear/linear_model/linear_model/linear_model/Cabin_indicator/to_sparse_input/NotEqual"
  attr {
    key: "T"
    value {
      type: DT_BOOL
    }
  }
  attr {
    key: "_output_shapes"
    value {
      list {
        shape {
          dim {
            size: -1
          }
          dim {
            size: 2
          }
        }
      }
    }
  }
}
node {
  name: "linear/linear_model/linear_model/linear_model/Cabin_indicator/to_sparse_input/values"
  op: "GatherNd"
  input: "linear/linear_model/linear_model/linear_model/Cabin_indicator/ExpandDims"
  input: "linear/linear_model/linear_model/linear_model/Cabin_indicator/to_sparse_input/indices"
  attr {
    key: "Tindices"
    value {
      type: DT_INT64
    }
  }
  attr {
    key: "Tparams"
    value {
      type: DT_STRING
    }
  }
  attr {
    key: "_output_shapes"
    value {
      list {
        shape {
          dim {
            size: -1
          }
        }
      }
    }
  }
}
node {
  name: "linear/linear_model/linear_model/linear_model/Cabin_indicator/to_sparse_input/dense_shape"
  op: "Shape"
  input: "linear/linear_model/linear_model/linear_model/Cabin_indicator/ExpandDims"
  attr {
    key: "T"
    value {
      type: DT_STRING
    }
  }
  attr {
    key: "_output_shapes"
    value {
      list {
        shape {
          dim {
            size: 2
          }
        }
      }
    }
  }
  attr {
    key: "out_type"
    value {
      type: DT_INT64
    }
  }
}
node {
  name: "linear/linear_model/linear_model/linear_model/Cabin_indicator/Cabin_lookup/Const"
  op: "Const"
  attr {
    key: "_output_shapes"
    value {
      list {
        shape {
          dim {
            size: 9
          }
        }
      }
    }
  }
  attr {
    key: "dtype"
    value {
      type: DT_STRING
    }
  }
  attr {
    key: "value"
    value {
      tensor {
        dtype: DT_STRING
        tensor_shape {
          dim {
            size: 9
          }
        }
        string_val: "Unknown"
        string_val: "C"
        string_val: "E"
        string_val: "G"
        string_val: "D"
        string_val: "A"
        string_val: "B"
        string_val: "F"
        string_val: "T"
      }
    }
  }
}
node {
  name: "linear/linear_model/linear_model/linear_model/Cabin_indicator/Cabin_lookup/Size"
  op: "Const"
  attr {
    key: "_output_shapes"
    value {
      list {
        shape {
        }
      }
    }
  }
  attr {
    key: "dtype"
    value {
      type: DT_INT32
    }
  }
  attr {
    key: "value"
    value {
      tensor {
        dtype: DT_INT32
        tensor_shape {
        }
        int_val: 9
      }
    }
  }
}
node {
  name: "linear/linear_model/linear_model/linear_model/Cabin_indicator/Cabin_lookup/range/start"
  op: "Const"
  attr {
    key: "_output_shapes"
    value {
      list {
        shape {
        }
      }
    }
  }
  attr {
    key: "dtype"
    value {
      type: DT_INT32
    }
  }
  attr {
    key: "value"
    value {
      tensor {
        dtype: DT_INT32
        tensor_shape {
        }
        int_val: 0
      }
    }
  }
}
node {
  name: "linear/linear_model/linear_model/linear_model/Cabin_indicator/Cabin_lookup/range/delta"
  op: "Const"
  attr {
    key: "_output_shapes"
    value {
      list {
        shape {
        }
      }
    }
  }
  attr {
    key: "dtype"
    value {
      type: DT_INT32
    }
  }
  attr {
    key: "value"
    value {
      tensor {
        dtype: DT_INT32
        tensor_shape {
        }
        int_val: 1
      }
    }
  }
}
node {
  name: "linear/linear_model/linear_model/linear_model/Cabin_indicator/Cabin_lookup/range"
  op: "Range"
  input: "linear/linear_model/linear_model/linear_model/Cabin_indicator/Cabin_lookup/range/start"
  input: "linear/linear_model/linear_model/linear_model/Cabin_indicator/Cabin_lookup/Size"
  input: "linear/linear_model/linear_model/linear_model/Cabin_indicator/Cabin_lookup/range/delta"
  attr {
    key: "Tidx"
    value {
      type: DT_INT32
    }
  }
  attr {
    key: "_output_shapes"
    value {
      list {
        shape {
          dim {
            size: 9
          }
        }
      }
    }
  }
}
node {
  name: "linear/linear_model/linear_model/linear_model/Cabin_indicator/Cabin_lookup/Cast"
  op: "Cast"
  input: "linear/linear_model/linear_model/linear_model/Cabin_indicator/Cabin_lookup/range"
  attr {
    key: "DstT"
    value {
      type: DT_INT64
    }
  }
  attr {
    key: "SrcT"
    value {
      type: DT_INT32
    }
  }
  attr {
    key: "Truncate"
    value {
      b: false
    }
  }
  attr {
    key: "_output_shapes"
    value {
      list {
        shape {
          dim {
            size: 9
          }
        }
      }
    }
  }
}
node {
  name: "linear/linear_model/linear_model/linear_model/Cabin_indicator/Cabin_lookup/hash_table/Const"
  op: "Const"
  attr {
    key: "_output_shapes"
    value {
      list {
        shape {
        }
      }
    }
  }
  attr {
    key: "dtype"
    value {
      type: DT_INT64
    }
  }
  attr {
    key: "value"
    value {
      tensor {
        dtype: DT_INT64
        tensor_shape {
        }
        int64_val: -1
      }
    }
  }
}
node {
  name: "linear/linear_model/linear_model/linear_model/Cabin_indicator/Cabin_lookup/hash_table/hash_table"
  op: "HashTableV2"
  attr {
    key: "_output_shapes"
    value {
      list {
        shape {
        }
      }
    }
  }
  attr {
    key: "container"
    value {
      s: ""
    }
  }
  attr {
    key: "key_dtype"
    value {
      type: DT_STRING
    }
  }
  attr {
    key: "shared_name"
    value {
      s: "hash_table_8deea9a9-ae91-44e0-9e43-b7bde2d15880"
    }
  }
  attr {
    key: "use_node_name_sharing"
    value {
      b: false
    }
  }
  attr {
    key: "value_dtype"
    value {
      type: DT_INT64
    }
  }
}
node {
  name: "linear/linear_model/linear_model/linear_model/Cabin_indicator/Cabin_lookup/hash_table/table_init/LookupTableImportV2"
  op: "LookupTableImportV2"
  input: "linear/linear_model/linear_model/linear_model/Cabin_indicator/Cabin_lookup/hash_table/hash_table"
  input: "linear/linear_model/linear_model/linear_model/Cabin_indicator/Cabin_lookup/Const"
  input: "linear/linear_model/linear_model/linear_model/Cabin_indicator/Cabin_lookup/Cast"
  attr {
    key: "Tin"
    value {
      type: DT_STRING
    }
  }
  attr {
    key: "Tout"
    value {
      type: DT_INT64
    }
  }
}
node {
  name: "linear/linear_model/linear_model/linear_model/Cabin_indicator/hash_table_Lookup/LookupTableFindV2"
  op: "LookupTableFindV2"
  input: "linear/linear_model/linear_model/linear_model/Cabin_indicator/Cabin_lookup/hash_table/hash_table"
  input: "linear/linear_model/linear_model/linear_model/Cabin_indicator/to_sparse_input/values"
  input: "linear/linear_model/linear_model/linear_model/Cabin_indicator/Cabin_lookup/hash_table/Const"
  attr {
    key: "Tin"
    value {
      type: DT_STRING
    }
  }
  attr {
    key: "Tout"
    value {
      type: DT_INT64
    }
  }
  attr {
    key: "_output_shapes"
    value {
      list {
        shape {
          dim {
            size: -1
          }
        }
      }
    }
  }
}
node {
  name: "linear/linear_model/linear_model/linear_model/Cabin_indicator/SparseToDense/default_value"
  op: "Const"
  attr {
    key: "_output_shapes"
    value {
      list {
        shape {
        }
      }
    }
  }
  attr {
    key: "dtype"
    value {
      type: DT_INT64
    }
  }
  attr {
    key: "value"
    value {
      tensor {
        dtype: DT_INT64
        tensor_shape {
        }
        int64_val: -1
      }
    }
  }
}
node {
  name: "linear/linear_model/linear_model/linear_model/Cabin_indicator/SparseToDense"
  op: "SparseToDense"
  input: "linear/linear_model/linear_model/linear_model/Cabin_indicator/to_sparse_input/indices"
  input: "linear/linear_model/linear_model/linear_model/Cabin_indicator/to_sparse_input/dense_shape"
  input: "linear/linear_model/linear_model/linear_model/Cabin_indicator/hash_table_Lookup/LookupTableFindV2"
  input: "linear/linear_model/linear_model/linear_model/Cabin_indicator/SparseToDense/default_value"
  attr {
    key: "T"
    value {
      type: DT_INT64
    }
  }
  attr {
    key: "Tindices"
    value {
      type: DT_INT64
    }
  }
  attr {
    key: "_output_shapes"
    value {
      list {
        shape {
          dim {
            size: -1
          }
          dim {
            size: 1
          }
        }
      }
    }
  }
  attr {
    key: "validate_indices"
    value {
      b: true
    }
  }
}
node {
  name: "linear/linear_model/linear_model/linear_model/Cabin_indicator/one_hot/Const"
  op: "Const"
  attr {
    key: "_output_shapes"
    value {
      list {
        shape {
        }
      }
    }
  }
  attr {
    key: "dtype"
    value {
      type: DT_FLOAT
    }
  }
  attr {
    key: "value"
    value {
      tensor {
        dtype: DT_FLOAT
        tensor_shape {
        }
        float_val: 1.0
      }
    }
  }
}
node {
  name: "linear/linear_model/linear_model/linear_model/Cabin_indicator/one_hot/Const_1"
  op: "Const"
  attr {
    key: "_output_shapes"
    value {
      list {
        shape {
        }
      }
    }
  }
  attr {
    key: "dtype"
    value {
      type: DT_FLOAT
    }
  }
  attr {
    key: "value"
    value {
      tensor {
        dtype: DT_FLOAT
        tensor_shape {
        }
        float_val: 0.0
      }
    }
  }
}
node {
  name: "linear/linear_model/linear_model/linear_model/Cabin_indicator/one_hot/depth"
  op: "Const"
  attr {
    key: "_output_shapes"
    value {
      list {
        shape {
        }
      }
    }
  }
  attr {
    key: "dtype"
    value {
      type: DT_INT32
    }
  }
  attr {
    key: "value"
    value {
      tensor {
        dtype: DT_INT32
        tensor_shape {
        }
        int_val: 9
      }
    }
  }
}
node {
  name: "linear/linear_model/linear_model/linear_model/Cabin_indicator/one_hot/on_value"
  op: "Const"
  attr {
    key: "_output_shapes"
    value {
      list {
        shape {
        }
      }
    }
  }
  attr {
    key: "dtype"
    value {
      type: DT_FLOAT
    }
  }
  attr {
    key: "value"
    value {
      tensor {
        dtype: DT_FLOAT
        tensor_shape {
        }
        float_val: 1.0
      }
    }
  }
}
node {
  name: "linear/linear_model/linear_model/linear_model/Cabin_indicator/one_hot/off_value"
  op: "Const"
  attr {
    key: "_output_shapes"
    value {
      list {
        shape {
        }
      }
    }
  }
  attr {
    key: "dtype"
    value {
      type: DT_FLOAT
    }
  }
  attr {
    key: "value"
    value {
      tensor {
        dtype: DT_FLOAT
        tensor_shape {
        }
        float_val: 0.0
      }
    }
  }
}
node {
  name: "linear/linear_model/linear_model/linear_model/Cabin_indicator/one_hot"
  op: "OneHot"
  input: "linear/linear_model/linear_model/linear_model/Cabin_indicator/SparseToDense"
  input: "linear/linear_model/linear_model/linear_model/Cabin_indicator/one_hot/depth"
  input: "linear/linear_model/linear_model/linear_model/Cabin_indicator/one_hot/on_value"
  input: "linear/linear_model/linear_model/linear_model/Cabin_indicator/one_hot/off_value"
  attr {
    key: "T"
    value {
      type: DT_FLOAT
    }
  }
  attr {
    key: "TI"
    value {
      type: DT_INT64
    }
  }
  attr {
    key: "_output_shapes"
    value {
      list {
        shape {
          dim {
            size: -1
          }
          dim {
            size: 1
          }
          dim {
            size: 9
          }
        }
      }
    }
  }
  attr {
    key: "axis"
    value {
      i: -1
    }
  }
}
node {
  name: "linear/linear_model/linear_model/linear_model/Cabin_indicator/Sum/reduction_indices"
  op: "Const"
  attr {
    key: "_output_shapes"
    value {
      list {
        shape {
          dim {
            size: 1
          }
        }
      }
    }
  }
  attr {
    key: "dtype"
    value {
      type: DT_INT32
    }
  }
  attr {
    key: "value"
    value {
      tensor {
        dtype: DT_INT32
        tensor_shape {
          dim {
            size: 1
          }
        }
        int_val: -2
      }
    }
  }
}
node {
  name: "linear/linear_model/linear_model/linear_model/Cabin_indicator/Sum"
  op: "Sum"
  input: "linear/linear_model/linear_model/linear_model/Cabin_indicator/one_hot"
  input: "linear/linear_model/linear_model/linear_model/Cabin_indicator/Sum/reduction_indices"
  attr {
    key: "T"
    value {
      type: DT_FLOAT
    }
  }
  attr {
    key: "Tidx"
    value {
      type: DT_INT32
    }
  }
  attr {
    key: "_output_shapes"
    value {
      list {
        shape {
          dim {
            size: -1
          }
          dim {
            size: 9
          }
        }
      }
    }
  }
  attr {
    key: "keep_dims"
    value {
      b: false
    }
  }
}
node {
  name: "linear/linear_model/linear_model/linear_model/Cabin_indicator/Shape"
  op: "Shape"
  input: "linear/linear_model/linear_model/linear_model/Cabin_indicator/Sum"
  attr {
    key: "T"
    value {
      type: DT_FLOAT
    }
  }
  attr {
    key: "_output_shapes"
    value {
      list {
        shape {
          dim {
            size: 2
          }
        }
      }
    }
  }
  attr {
    key: "out_type"
    value {
      type: DT_INT32
    }
  }
}
node {
  name: "linear/linear_model/linear_model/linear_model/Cabin_indicator/strided_slice/stack"
  op: "Const"
  attr {
    key: "_output_shapes"
    value {
      list {
        shape {
          dim {
            size: 1
          }
        }
      }
    }
  }
  attr {
    key: "dtype"
    value {
      type: DT_INT32
    }
  }
  attr {
    key: "value"
    value {
      tensor {
        dtype: DT_INT32
        tensor_shape {
          dim {
            size: 1
          }
        }
        int_val: 0
      }
    }
  }
}
node {
  name: "linear/linear_model/linear_model/linear_model/Cabin_indicator/strided_slice/stack_1"
  op: "Const"
  attr {
    key: "_output_shapes"
    value {
      list {
        shape {
          dim {
            size: 1
          }
        }
      }
    }
  }
  attr {
    key: "dtype"
    value {
      type: DT_INT32
    }
  }
  attr {
    key: "value"
    value {
      tensor {
        dtype: DT_INT32
        tensor_shape {
          dim {
            size: 1
          }
        }
        int_val: 1
      }
    }
  }
}
node {
  name: "linear/linear_model/linear_model/linear_model/Cabin_indicator/strided_slice/stack_2"
  op: "Const"
  attr {
    key: "_output_shapes"
    value {
      list {
        shape {
          dim {
            size: 1
          }
        }
      }
    }
  }
  attr {
    key: "dtype"
    value {
      type: DT_INT32
    }
  }
  attr {
    key: "value"
    value {
      tensor {
        dtype: DT_INT32
        tensor_shape {
          dim {
            size: 1
          }
        }
        int_val: 1
      }
    }
  }
}
node {
  name: "linear/linear_model/linear_model/linear_model/Cabin_indicator/strided_slice"
  op: "StridedSlice"
  input: "linear/linear_model/linear_model/linear_model/Cabin_indicator/Shape"
  input: "linear/linear_model/linear_model/linear_model/Cabin_indicator/strided_slice/stack"
  input: "linear/linear_model/linear_model/linear_model/Cabin_indicator/strided_slice/stack_1"
  input: "linear/linear_model/linear_model/linear_model/Cabin_indicator/strided_slice/stack_2"
  attr {
    key: "Index"
    value {
      type: DT_INT32
    }
  }
  attr {
    key: "T"
    value {
      type: DT_INT32
    }
  }
  attr {
    key: "_output_shapes"
    value {
      list {
        shape {
        }
      }
    }
  }
  attr {
    key: "begin_mask"
    value {
      i: 0
    }
  }
  attr {
    key: "ellipsis_mask"
    value {
      i: 0
    }
  }
  attr {
    key: "end_mask"
    value {
      i: 0
    }
  }
  attr {
    key: "new_axis_mask"
    value {
      i: 0
    }
  }
  attr {
    key: "shrink_axis_mask"
    value {
      i: 1
    }
  }
}
node {
  name: "linear/linear_model/linear_model/linear_model/Cabin_indicator/Reshape/shape/1"
  op: "Const"
  attr {
    key: "_output_shapes"
    value {
      list {
        shape {
        }
      }
    }
  }
  attr {
    key: "dtype"
    value {
      type: DT_INT32
    }
  }
  attr {
    key: "value"
    value {
      tensor {
        dtype: DT_INT32
        tensor_shape {
        }
        int_val: 9
      }
    }
  }
}
node {
  name: "linear/linear_model/linear_model/linear_model/Cabin_indicator/Reshape/shape"
  op: "Pack"
  input: "linear/linear_model/linear_model/linear_model/Cabin_indicator/strided_slice"
  input: "linear/linear_model/linear_model/linear_model/Cabin_indicator/Reshape/shape/1"
  attr {
    key: "N"
    value {
      i: 2
    }
  }
  attr {
    key: "T"
    value {
      type: DT_INT32
    }
  }
  attr {
    key: "_output_shapes"
    value {
      list {
        shape {
          dim {
            size: 2
          }
        }
      }
    }
  }
  attr {
    key: "axis"
    value {
      i: 0
    }
  }
}
node {
  name: "linear/linear_model/linear_model/linear_model/Cabin_indicator/Reshape"
  op: "Reshape"
  input: "linear/linear_model/linear_model/linear_model/Cabin_indicator/Sum"
  input: "linear/linear_model/linear_model/linear_model/Cabin_indicator/Reshape/shape"
  attr {
    key: "T"
    value {
      type: DT_FLOAT
    }
  }
  attr {
    key: "Tshape"
    value {
      type: DT_INT32
    }
  }
  attr {
    key: "_output_shapes"
    value {
      list {
        shape {
          dim {
            size: -1
          }
          dim {
            size: 9
          }
        }
      }
    }
  }
}
node {
  name: "linear/linear_model/Cabin_indicator/weights/ReadVariableOp"
  op: "ReadVariableOp"
  input: "linear/linear_model/Cabin_indicator/weights/part_0"
  attr {
    key: "_output_shapes"
    value {
      list {
        shape {
          dim {
            size: 9
          }
          dim {
            size: 1
          }
        }
      }
    }
  }
  attr {
    key: "dtype"
    value {
      type: DT_FLOAT
    }
  }
}
node {
  name: "linear/linear_model/Cabin_indicator/weights"
  op: "Identity"
  input: "linear/linear_model/Cabin_indicator/weights/ReadVariableOp"
  attr {
    key: "T"
    value {
      type: DT_FLOAT
    }
  }
  attr {
    key: "_output_shapes"
    value {
      list {
        shape {
          dim {
            size: 9
          }
          dim {
            size: 1
          }
        }
      }
    }
  }
}
node {
  name: "linear/linear_model/linear_model/linear_model/Cabin_indicator/weighted_sum"
  op: "MatMul"
  input: "linear/linear_model/linear_model/linear_model/Cabin_indicator/Reshape"
  input: "linear/linear_model/Cabin_indicator/weights"
  attr {
    key: "T"
    value {
      type: DT_FLOAT
    }
  }
  attr {
    key: "_output_shapes"
    value {
      list {
        shape {
          dim {
            size: -1
          }
          dim {
            size: 1
          }
        }
      }
    }
  }
  attr {
    key: "transpose_a"
    value {
      b: false
    }
  }
  attr {
    key: "transpose_b"
    value {
      b: false
    }
  }
}
node {
  name: "linear/linear_model/linear_model/linear_model/Embarked_indicator/ExpandDims/dim"
  op: "Const"
  attr {
    key: "_output_shapes"
    value {
      list {
        shape {
        }
      }
    }
  }
  attr {
    key: "dtype"
    value {
      type: DT_INT32
    }
  }
  attr {
    key: "value"
    value {
      tensor {
        dtype: DT_INT32
        tensor_shape {
        }
        int_val: -1
      }
    }
  }
}
node {
  name: "linear/linear_model/linear_model/linear_model/Embarked_indicator/ExpandDims"
  op: "ExpandDims"
  input: "IteratorGetNext:2"
  input: "linear/linear_model/linear_model/linear_model/Embarked_indicator/ExpandDims/dim"
  attr {
    key: "T"
    value {
      type: DT_STRING
    }
  }
  attr {
    key: "Tdim"
    value {
      type: DT_INT32
    }
  }
  attr {
    key: "_output_shapes"
    value {
      list {
        shape {
          dim {
            size: -1
          }
          dim {
            size: 1
          }
        }
      }
    }
  }
}
node {
  name: "linear/linear_model/linear_model/linear_model/Embarked_indicator/to_sparse_input/ignore_value/x"
  op: "Const"
  attr {
    key: "_output_shapes"
    value {
      list {
        shape {
        }
      }
    }
  }
  attr {
    key: "dtype"
    value {
      type: DT_STRING
    }
  }
  attr {
    key: "value"
    value {
      tensor {
        dtype: DT_STRING
        tensor_shape {
        }
        string_val: ""
      }
    }
  }
}
node {
  name: "linear/linear_model/linear_model/linear_model/Embarked_indicator/to_sparse_input/NotEqual"
  op: "NotEqual"
  input: "linear/linear_model/linear_model/linear_model/Embarked_indicator/ExpandDims"
  input: "linear/linear_model/linear_model/linear_model/Embarked_indicator/to_sparse_input/ignore_value/x"
  attr {
    key: "T"
    value {
      type: DT_STRING
    }
  }
  attr {
    key: "_output_shapes"
    value {
      list {
        shape {
          dim {
            size: -1
          }
          dim {
            size: 1
          }
        }
      }
    }
  }
  attr {
    key: "incompatible_shape_error"
    value {
      b: true
    }
  }
}
node {
  name: "linear/linear_model/linear_model/linear_model/Embarked_indicator/to_sparse_input/indices"
  op: "Where"
  input: "linear/linear_model/linear_model/linear_model/Embarked_indicator/to_sparse_input/NotEqual"
  attr {
    key: "T"
    value {
      type: DT_BOOL
    }
  }
  attr {
    key: "_output_shapes"
    value {
      list {
        shape {
          dim {
            size: -1
          }
          dim {
            size: 2
          }
        }
      }
    }
  }
}
node {
  name: "linear/linear_model/linear_model/linear_model/Embarked_indicator/to_sparse_input/values"
  op: "GatherNd"
  input: "linear/linear_model/linear_model/linear_model/Embarked_indicator/ExpandDims"
  input: "linear/linear_model/linear_model/linear_model/Embarked_indicator/to_sparse_input/indices"
  attr {
    key: "Tindices"
    value {
      type: DT_INT64
    }
  }
  attr {
    key: "Tparams"
    value {
      type: DT_STRING
    }
  }
  attr {
    key: "_output_shapes"
    value {
      list {
        shape {
          dim {
…
        value {
          b: false
        }
      }
      attr {
        key: "_output_shapes"
        value {
          list {
            shape {
            }
          }
        }
      }
      experimental_debug_info {
        original_node_names: "zero_fraction/counts_to_fraction/Cast"
      }
    }
    node_def {
      name: "zero_fraction/counts_to_fraction/Cast_1"
      op: "Cast"
      input: "zero_fraction/Size:output:0"
      attr {
        key: "DstT"
        value {
          type: DT_FLOAT
        }
      }
      attr {
        key: "SrcT"
        value {
          type: DT_INT64
        }
      }
      attr {
        key: "Truncate"
        value {
          b: false
        }
      }
      attr {
        key: "_output_shapes"
        value {
          list {
            shape {
            }
          }
        }
      }
      experimental_debug_info {
        original_node_names: "zero_fraction/counts_to_fraction/Cast_1"
      }
    }
    node_def {
      name: "zero_fraction/counts_to_fraction/truediv"
      op: "RealDiv"
      input: "zero_fraction/counts_to_fraction/Cast:y:0"
      input: "zero_fraction/counts_to_fraction/Cast_1:y:0"
      attr {
        key: "T"
        value {
          type: DT_FLOAT
        }
      }
      attr {
        key: "_output_shapes"
        value {
          list {
            shape {
            }
          }
        }
      }
      experimental_debug_info {
        original_node_names: "zero_fraction/counts_to_fraction/truediv"
      }
    }
    node_def {
      name: "zero_fraction/fraction"
      op: "Identity"
      input: "zero_fraction/counts_to_fraction/truediv:z:0"
      attr {
        key: "T"
        value {
          type: DT_FLOAT
        }
      }
      attr {
        key: "_output_shapes"
        value {
          list {
            shape {
            }
          }
        }
      }
      experimental_debug_info {
        original_node_names: "zero_fraction/fraction"
      }
    }
    node_def {
      name: "Cast"
      op: "Cast"
      input: "cast_linear_zero_fraction_total_size_size_8"
      attr {
        key: "DstT"
        value {
          type: DT_FLOAT
        }
      }
      attr {
        key: "SrcT"
        value {
          type: DT_INT64
        }
      }
      attr {
        key: "Truncate"
        value {
          b: false
        }
      }
      attr {
        key: "_output_shapes"
        value {
          list {
            shape {
            }
          }
        }
      }
      experimental_debug_info {
        original_node_names: "Cast"
      }
    }
    node_def {
      name: "mul_0"
      op: "Mul"
      input: "zero_fraction/fraction:output:0"
      input: "Cast:y:0"
      attr {
        key: "T"
        value {
          type: DT_FLOAT
        }
      }
      experimental_debug_info {
        original_node_names: "mul"
      }
    }
    ret {
      key: "mul"
      value: "mul_0:z:0"
    }
    attr {
      key: "_input_shapes"
      value {
        list {
          shape {
            unknown_rank: true
          }
          shape {
          }
        }
      }
    }
  }
  function {
    signature {
      name: "linear_zero_fraction_total_zero_zero_count_4_false_65192"
      input_arg {
        name: "zero_fraction_readvariableop_linear_linear_model_parch_indicator_weights_part_0"
        type: DT_RESOURCE
      }
      input_arg {
        name: "cast_linear_zero_fraction_total_size_size_4"
        type: DT_INT64
      }
      output_arg {
        name: "mul"
        type: DT_FLOAT
      }
      is_stateful: true
    }
    node_def {
      name: "zero_fraction/ReadVariableOp"
      op: "ReadVariableOp"
      input: "zero_fraction_readvariableop_linear_linear_model_parch_indicator_weights_part_0"
      attr {
        key: "_output_shapes"
        value {
          list {
            shape {
              dim {
                size: 7
              }
              dim {
                size: 1
              }
            }
          }
        }
      }
      attr {
        key: "dtype"
        value {
          type: DT_FLOAT
        }
      }
      experimental_debug_info {
        original_node_names: "zero_fraction/ReadVariableOp"
      }
    }
    node_def {
      name: "zero_fraction/Size"
      op: "Const"
      attr {
        key: "_output_shapes"
        value {
          list {
            shape {
            }
          }
        }
      }
      attr {
        key: "dtype"
        value {
          type: DT_INT64
        }
      }
      attr {
        key: "value"
        value {
          tensor {
            dtype: DT_INT64
            tensor_shape {
            }
            int64_val: 7
          }
        }
      }
      experimental_debug_info {
        original_node_names: "zero_fraction/Size"
      }
    }
    node_def {
      name: "zero_fraction/LessEqual/y"
      op: "Const"
      attr {
        key: "_output_shapes"
        value {
          list {
            shape {
            }
          }
        }
      }
      attr {
        key: "dtype"
        value {
          type: DT_INT64
        }
      }
      attr {
        key: "value"
        value {
          tensor {
            dtype: DT_INT64
            tensor_shape {
            }
            int64_val: 2147483647
          }
        }
      }
      experimental_debug_info {
        original_node_names: "zero_fraction/LessEqual/y"
      }
    }
    node_def {
      name: "zero_fraction/LessEqual"
      op: "LessEqual"
      input: "zero_fraction/Size:output:0"
      input: "zero_fraction/LessEqual/y:output:0"
      attr {
        key: "T"
        value {
          type: DT_INT64
        }
      }
      attr {
        key: "_output_shapes"
        value {
          list {
            shape {
            }
          }
        }
      }
      experimental_debug_info {
        original_node_names: "zero_fraction/LessEqual"
      }
    }
    node_def {
      name: "zero_fraction/cond"
      op: "StatelessIf"
      input: "zero_fraction/LessEqual:z:0"
      input: "zero_fraction/ReadVariableOp:value:0"
      attr {
        key: "Tcond"
        value {
          type: DT_BOOL
        }
      }
      attr {
        key: "Tin"
        value {
          list {
            type: DT_FLOAT
          }
        }
      }
      attr {
        key: "Tout"
        value {
          list {
            type: DT_INT64
          }
        }
      }
      attr {
        key: "_lower_using_switch_merge"
        value {
          b: true
        }
      }
      attr {
        key: "_output_shapes"
        value {
          list {
            shape {
            }
          }
        }
      }
      attr {
        key: "else_branch"
        value {
          func {
            name: "zero_fraction_cond_false_65202"
          }
        }
      }
      attr {
        key: "output_shapes"
        value {
          list {
            shape {
            }
          }
        }
      }
      attr {
        key: "then_branch"
        value {
          func {
            name: "zero_fraction_cond_true_65201"
          }
        }
      }
      experimental_debug_info {
        original_node_names: "zero_fraction/cond"
      }
    }
    node_def {
      name: "zero_fraction/cond/Identity"
      op: "Identity"
      input: "zero_fraction/cond:output:0"
      attr {
        key: "T"
        value {
          type: DT_INT64
        }
      }
      attr {
        key: "_output_shapes"
        value {
          list {
            shape {
            }
          }
        }
      }
      experimental_debug_info {
        original_node_names: "zero_fraction/cond/Identity"
      }
    }
    node_def {
      name: "zero_fraction/counts_to_fraction/sub"
      op: "Sub"
      input: "zero_fraction/Size:output:0"
      input: "zero_fraction/cond/Identity:output:0"
      attr {
        key: "T"
        value {
          type: DT_INT64
        }
      }
      attr {
        key: "_output_shapes"
        value {
          list {
            shape {
            }
          }
        }
      }
      experimental_debug_info {
        original_node_names: "zero_fraction/counts_to_fraction/sub"
      }
    }
    node_def {
      name: "zero_fraction/counts_to_fraction/Cast"
      op: "Cast"
      input: "zero_fraction/counts_to_fraction/sub:z:0"
      attr {
        key: "DstT"
        value {
          type: DT_FLOAT
        }
      }
      attr {
        key: "SrcT"
        value {
          type: DT_INT64
        }
      }
      attr {
        key: "Truncate"
        value {
          b: false
        }
      }
      attr {
        key: "_output_shapes"
        value {
          list {
            shape {
            }
          }
        }
      }
      experimental_debug_info {
        original_node_names: "zero_fraction/counts_to_fraction/Cast"
      }
    }
    node_def {
      name: "zero_fraction/counts_to_fraction/Cast_1"
      op: "Cast"
      input: "zero_fraction/Size:output:0"
      attr {
        key: "DstT"
        value {
          type: DT_FLOAT
        }
      }
      attr {
        key: "SrcT"
        value {
          type: DT_INT64
        }
      }
      attr {
        key: "Truncate"
        value {
          b: false
        }
      }
      attr {
        key: "_output_shapes"
        value {
          list {
            shape {
            }
          }
        }
      }
      experimental_debug_info {
        original_node_names: "zero_fraction/counts_to_fraction/Cast_1"
      }
    }
    node_def {
      name: "zero_fraction/counts_to_fraction/truediv"
      op: "RealDiv"
      input: "zero_fraction/counts_to_fraction/Cast:y:0"
      input: "zero_fraction/counts_to_fraction/Cast_1:y:0"
      attr {
        key: "T"
        value {
          type: DT_FLOAT
        }
      }
      attr {
        key: "_output_shapes"
        value {
          list {
            shape {
            }
          }
        }
      }
      experimental_debug_info {
        original_node_names: "zero_fraction/counts_to_fraction/truediv"
      }
    }
    node_def {
      name: "zero_fraction/fraction"
      op: "Identity"
      input: "zero_fraction/counts_to_fraction/truediv:z:0"
      attr {
        key: "T"
        value {
          type: DT_FLOAT
        }
      }
      attr {
        key: "_output_shapes"
        value {
          list {
            shape {
            }
          }
        }
      }
      experimental_debug_info {
        original_node_names: "zero_fraction/fraction"
      }
    }
    node_def {
      name: "Cast"
      op: "Cast"
      input: "cast_linear_zero_fraction_total_size_size_4"
      attr {
        key: "DstT"
        value {
          type: DT_FLOAT
        }
      }
      attr {
        key: "SrcT"
        value {
          type: DT_INT64
        }
      }
      attr {
        key: "Truncate"
        value {
          b: false
        }
      }
      attr {
        key: "_output_shapes"
        value {
          list {
            shape {
            }
          }
        }
      }
      experimental_debug_info {
        original_node_names: "Cast"
      }
    }
    node_def {
      name: "mul_0"
      op: "Mul"
      input: "zero_fraction/fraction:output:0"
      input: "Cast:y:0"
      attr {
        key: "T"
        value {
          type: DT_FLOAT
        }
      }
      experimental_debug_info {
        original_node_names: "mul"
      }
    }
    ret {
      key: "mul"
      value: "mul_0:z:0"
    }
    attr {
      key: "_input_shapes"
      value {
        list {
          shape {
            unknown_rank: true
          }
          shape {
          }
        }
      }
    }
  }
  function {
    signature {
      name: "zero_fraction_cond_true_65244"
      input_arg {
        name: "count_nonzero_notequal_zero_fraction_readvariableop"
        type: DT_FLOAT
      }
      output_arg {
        name: "cast"
        type: DT_INT64
      }
    }
    node_def {
      name: "count_nonzero/zeros"
      op: "Const"
      attr {
        key: "_output_shapes"
        value {
          list {
            shape {
            }
          }
        }
      }
      attr {
        key: "dtype"
        value {
          type: DT_FLOAT
        }
      }
      attr {
        key: "value"
        value {
          tensor {
            dtype: DT_FLOAT
            tensor_shape {
            }
            float_val: 0.0
          }
        }
      }
      experimental_debug_info {
        original_node_names: "count_nonzero/zeros"
      }
    }
    node_def {
      name: "count_nonzero/NotEqual"
      op: "NotEqual"
      input: "count_nonzero_notequal_zero_fraction_readvariableop"
      input: "count_nonzero/zeros:output:0"
      attr {
        key: "T"
        value {
          type: DT_FLOAT
        }
      }
      attr {
        key: "_output_shapes"
        value {
          list {
            shape {
              dim {
                size: 3
              }
              dim {
                size: 1
              }
            }
          }
        }
      }
      attr {
        key: "incompatible_shape_error"
        value {
          b: true
        }
      }
      experimental_debug_info {
        original_node_names: "count_nonzero/NotEqual"
      }
    }
    node_def {
      name: "count_nonzero/Cast"
      op: "Cast"
      input: "count_nonzero/NotEqual:z:0"
      attr {
        key: "DstT"
        value {
          type: DT_INT32
        }
      }
      attr {
        key: "SrcT"
        value {
          type: DT_BOOL
        }
      }
      attr {
        key: "Truncate"
        value {
          b: false
        }
      }
      attr {
        key: "_output_shapes"
        value {
          list {
            shape {
              dim {
                size: 3
              }
              dim {
                size: 1
              }
            }
          }
        }
      }
      experimental_debug_info {
        original_node_names: "count_nonzero/Cast"
      }
    }
    node_def {
      name: "count_nonzero/Const"
      op: "Const"
      attr {
        key: "_output_shapes"
        value {
          list {
            shape {
              dim {
                size: 2
              }
            }
          }
        }
      }
      attr {
        key: "dtype"
        value {
          type: DT_INT32
        }
      }
      attr {
        key: "value"
        value {
          tensor {
            dtype: DT_INT32
            tensor_shape {
              dim {
                size: 2
              }
            }
            tensor_content: "\000\000\000\000\001\000\000\000"
          }
        }
      }
      experimental_debug_info {
        original_node_names: "count_nonzero/Const"
      }
    }
    node_def {
      name: "count_nonzero/nonzero_count"
      op: "Sum"
      input: "count_nonzero/Cast:y:0"
      input: "count_nonzero/Const:output:0"
      attr {
        key: "T"
        value {
          type: DT_INT32
        }
      }
      attr {
        key: "Tidx"
        value {
          type: DT_INT32
        }
      }
      attr {
        key: "_output_shapes"
        value {
          list {
            shape {
            }
          }
        }
      }
      attr {
        key: "keep_dims"
        value {
          b: false
        }
      }
      experimental_debug_info {
        original_node_names: "count_nonzero/nonzero_count"
      }
    }
    node_def {
      name: "Cast"
      op: "Cast"
      input: "count_nonzero/nonzero_count:output:0"
      attr {
        key: "DstT"
        value {
          type: DT_INT64
        }
      }
      attr {
        key: "SrcT"
        value {
          type: DT_INT32
        }
      }
      attr {
        key: "Truncate"
        value {
          b: false
        }
      }
      attr {
        key: "_output_shapes"
        value {
          list {
            shape {
            }
          }
        }
      }
      experimental_debug_info {
        original_node_names: "Cast"
      }
    }
    ret {
      key: "cast"
      value: "Cast:y:0"
    }
    attr {
      key: "_input_shapes"
      value {
        list {
          shape {
            dim {
              size: 3
            }
            dim {
              size: 1
            }
          }
        }
      }
    }
  }
  function {
    signature {
      name: "linear_zero_fraction_total_zero_zero_count_6_true_65277"
      input_arg {
        name: "placeholder"
        type: DT_RESOURCE
      }
      input_arg {
        name: "placeholder_1"
        type: DT_INT64
      }
      output_arg {
        name: "const"
        type: DT_FLOAT
      }
    }
    node_def {
      name: "Const"
      op: "Const"
      attr {
        key: "_output_shapes"
        value {
          list {
            shape {
            }
          }
        }
      }
      attr {
        key: "dtype"
        value {
          type: DT_FLOAT
        }
      }
      attr {
        key: "value"
        value {
          tensor {
            dtype: DT_FLOAT
            tensor_shape {
            }
            float_val: 0.0
          }
        }
      }
      experimental_debug_info {
        original_node_names: "Const"
      }
    }
    ret {
      key: "const"
      value: "Const:output:0"
    }
    attr {
      key: "_input_shapes"
      value {
        list {
          shape {
            unknown_rank: true
          }
          shape {
          }
        }
      }
    }
  }
  function {
    signature {
      name: "zero_fraction_cond_false_65331"
      input_arg {
        name: "count_nonzero_notequal_zero_fraction_readvariableop"
        type: DT_FLOAT
      }
      output_arg {
        name: "count_nonzero_nonzero_count"
        type: DT_INT64
      }
    }
    node_def {
      name: "count_nonzero/zeros"
      op: "Const"
      attr {
        key: "_output_shapes"
        value {
          list {
            shape {
            }
          }
        }
      }
      attr {
        key: "dtype"
        value {
          type: DT_FLOAT
        }
      }
      attr {
        key: "value"
        value {
          tensor {
            dtype: DT_FLOAT
            tensor_shape {
            }
            float_val: 0.0
          }
        }
      }
      experimental_debug_info {
        original_node_names: "count_nonzero/zeros"
      }
    }
    node_def {
      name: "count_nonzero/NotEqual"
      op: "NotEqual"
      input: "count_nonzero_notequal_zero_fraction_readvariableop"
      input: "count_nonzero/zeros:output:0"
      attr {
        key: "T"
        value {
          type: DT_FLOAT
        }
      }
      attr {
        key: "_output_shapes"
        value {
          list {
            shape {
              dim {
                size: 7
              }
              dim {
                size: 1
              }
            }
          }
        }
      }
      attr {
        key: "incompatible_shape_error"
        value {
          b: true
        }
      }
      experimental_debug_info {
        original_node_names: "count_nonzero/NotEqual"
      }
    }
    node_def {
      name: "count_nonzero/Cast"
      op: "Cast"
      input: "count_nonzero/NotEqual:z:0"
      attr {
        key: "DstT"
        value {
          type: DT_INT64
        }
      }
      attr {
        key: "SrcT"
        value {
          type: DT_BOOL
        }
      }
      attr {
        key: "Truncate"
        value {
          b: false
        }
      }
      attr {
        key: "_output_shapes"
        value {
          list {
            shape {
              dim {
                size: 7
              }
              dim {
                size: 1
              }
            }
          }
        }
      }
      experimental_debug_info {
        original_node_names: "count_nonzero/Cast"
      }
    }
    node_def {
      name: "count_nonzero/Const"
      op: "Const"
      attr {
        key: "_output_shapes"
        value {
          list {
            shape {
              dim {
                size: 2
              }
            }
          }
        }
      }
      attr {
        key: "dtype"
        value {
          type: DT_INT32
        }
      }
      attr {
        key: "value"
        value {
          tensor {
            dtype: DT_INT32
            tensor_shape {
              dim {
                size: 2
              }
            }
            tensor_content: "\000\000\000\000\001\000\000\000"
          }
        }
      }
      experimental_debug_info {
        original_node_names: "count_nonzero/Const"
      }
    }
    node_def {
      name: "count_nonzero/nonzero_count"
      op: "Sum"
      input: "count_nonzero/Cast:y:0"
      input: "count_nonzero/Const:output:0"
      attr {
        key: "T"
        value {
          type: DT_INT64
        }
      }
      attr {
        key: "Tidx"
        value {
          type: DT_INT32
        }
      }
      attr {
        key: "_output_shapes"
        value {
          list {
            shape {
            }
          }
        }
      }
      attr {
        key: "keep_dims"
        value {
          b: false
        }
      }
      experimental_debug_info {
        original_node_names: "count_nonzero/nonzero_count"
      }
    }
    ret {
      key: "count_nonzero_nonzero_count"
      value: "count_nonzero/nonzero_count:output:0"
    }
    attr {
      key: "_input_shapes"
      value {
        list {
          shape {
            dim {
              size: 7
            }
            dim {
              size: 1
            }
          }
        }
      }
    }
  }
  function {
    signature {
      name: "linear_zero_fraction_total_zero_zero_count_2_true_65105"
      input_arg {
        name: "placeholder"
        type: DT_RESOURCE
      }
      input_arg {
        name: "placeholder_1"
        type: DT_INT64
      }
      output_arg {
        name: "const"
        type: DT_FLOAT
      }
    }
    node_def {
      name: "Const"
      op: "Const"
      attr {
        key: "_output_shapes"
        value {
          list {
            shape {
            }
          }
        }
      }
      attr {
        key: "dtype"
        value {
          type: DT_FLOAT
        }
      }
      attr {
        key: "value"
        value {
          tensor {
            dtype: DT_FLOAT
            tensor_shape {
            }
            float_val: 0.0
          }
        }
      }
      experimental_debug_info {
        original_node_names: "Const"
      }
    }
    ret {
      key: "const"
      value: "Const:output:0"
    }
    attr {
      key: "_input_shapes"
      value {
        list {
          shape {
            unknown_rank: true
          }
          shape {
          }
        }
      }
    }
  }
  function {
    signature {
      name: "zero_fraction_cond_false_65030"
      input_arg {
        name: "count_nonzero_notequal_zero_fraction_readvariableop"
        type: DT_FLOAT
      }
      output_arg {
        name: "count_nonzero_nonzero_count"
        type: DT_INT64
      }
    }
    node_def {
      name: "count_nonzero/zeros"
      op: "Const"
      attr {
        key: "_output_shapes"
        value {
          list {
            shape {
            }
          }
        }
      }
      attr {
        key: "dtype"
        value {
          type: DT_FLOAT
        }
      }
      attr {
        key: "value"
        value {
          tensor {
            dtype: DT_FLOAT
            tensor_shape {
            }
            float_val: 0.0
          }
        }
      }
      experimental_debug_info {
        original_node_names: "count_nonzero/zeros"
      }
    }
    node_def {
      name: "count_nonzero/NotEqual"
      op: "NotEqual"
      input: "count_nonzero_notequal_zero_fraction_readvariableop"
      input: "count_nonzero/zeros:output:0"
      attr {
        key: "T"
        value {
          type: DT_FLOAT
        }
      }
      attr {
        key: "_output_shapes"
        value {
          list {
            shape {
              dim {
                size: 1
              }
              dim {
                size: 1
              }
            }
          }
        }
      }
      attr {
        key: "incompatible_shape_error"
        value {
          b: true
        }
      }
      experimental_debug_info {
        original_node_names: "count_nonzero/NotEqual"
      }
    }
    node_def {
      name: "count_nonzero/Cast"
      op: "Cast"
      input: "count_nonzero/NotEqual:z:0"
      attr {
        key: "DstT"
        value {
          type: DT_INT64
        }
      }
      attr {
        key: "SrcT"
        value {
          type: DT_BOOL
        }
      }
      attr {
        key: "Truncate"
        value {
          b: false
        }
      }
      attr {
        key: "_output_shapes"
        value {
          list {
            shape {
              dim {
                size: 1
              }
              dim {
                size: 1
              }
            }
          }
        }
      }
      experimental_debug_info {
        original_node_names: "count_nonzero/Cast"
      }
    }
    node_def {
      name: "count_nonzero/Const"
      op: "Const"
      attr {
        key: "_output_shapes"
        value {
          list {
            shape {
              dim {
                size: 2
              }
            }
          }
        }
      }
      attr {
        key: "dtype"
        value {
          type: DT_INT32
        }
      }
      attr {
        key: "value"
        value {
          tensor {
            dtype: DT_INT32
            tensor_shape {
              dim {
                size: 2
              }
            }
            tensor_content: "\000\000\000\000\001\000\000\000"
          }
        }
      }
      experimental_debug_info {
        original_node_names: "count_nonzero/Const"
      }
    }
    node_def {
      name: "count_nonzero/nonzero_count"
      op: "Sum"
      input: "count_nonzero/Cast:y:0"
      input: "count_nonzero/Const:output:0"
      attr {
        key: "T"
        value {
          type: DT_INT64
        }
      }
      attr {
        key: "Tidx"
        value {
          type: DT_INT32
        }
      }
      attr {
        key: "_output_shapes"
        value {
          list {
            shape {
            }
          }
        }
      }
      attr {
        key: "keep_dims"
        value {
          b: false
        }
      }
      experimental_debug_info {
        original_node_names: "count_nonzero/nonzero_count"
      }
    }
    ret {
      key: "count_nonzero_nonzero_count"
      value: "count_nonzero/nonzero_count:output:0"
    }
    attr {
      key: "_input_shapes"
      value {
        list {
          shape {
            dim {
              size: 1
            }
            dim {
              size: 1
            }
          }
        }
      }
    }
  }
  function {
    signature {
      name: "zero_fraction_cond_true_65072"
      input_arg {
        name: "count_nonzero_notequal_zero_fraction_readvariableop"
        type: DT_FLOAT
      }
      output_arg {
        name: "cast"
        type: DT_INT64
      }
    }
    node_def {
      name: "count_nonzero/zeros"
      op: "Const"
      attr {
        key: "_output_shapes"
        value {
          list {
            shape {
            }
          }
        }
      }
      attr {
        key: "dtype"
        value {
          type: DT_FLOAT
        }
      }
      attr {
        key: "value"
        value {
          tensor {
            dtype: DT_FLOAT
            tensor_shape {
            }
            float_val: 0.0
          }
        }
      }
      experimental_debug_info {
        original_node_names: "count_nonzero/zeros"
      }
    }
    node_def {
      name: "count_nonzero/NotEqual"
      op: "NotEqual"
      input: "count_nonzero_notequal_zero_fraction_readvariableop"
      input: "count_nonzero/zeros:output:0"
      attr {
        key: "T"
        value {
          type: DT_FLOAT
        }
      }
      attr {
        key: "_output_shapes"
        value {
          list {
            shape {
              dim {
                size: 9
              }
              dim {
                size: 1
              }
            }
          }
        }
      }
      attr {
        key: "incompatible_shape_error"
        value {
          b: true
        }
      }
      experimental_debug_info {
        original_node_names: "count_nonzero/NotEqual"
      }
    }
    node_def {
      name: "count_nonzero/Cast"
      op: "Cast"
      input: "count_nonzero/NotEqual:z:0"
      attr {
        key: "DstT"
        value {
          type: DT_INT32
        }
      }
      attr {
        key: "SrcT"
        value {
          type: DT_BOOL
        }
      }
      attr {
        key: "Truncate"
        value {
          b: false
        }
      }
      attr {
        key: "_output_shapes"
        value {
          list {
            shape {
              dim {
                size: 9
              }
              dim {
                size: 1
              }
            }
          }
        }
      }
      experimental_debug_info {
        original_node_names: "count_nonzero/Cast"
      }
    }
    node_def {
      name: "count_nonzero/Const"
      op: "Const"
      attr {
        key: "_output_shapes"
        value {
          list {
            shape {
              dim {
                size: 2
              }
            }
          }
        }
      }
      attr {
        key: "dtype"
        value {
          type: DT_INT32
        }
      }
      attr {
        key: "value"
        value {
          tensor {
            dtype: DT_INT32
            tensor_shape {
              dim {
                size: 2
              }
            }
            tensor_content: "\000\000\000\000\001\000\000\000"
          }
        }
      }
      experimental_debug_info {
        original_node_names: "count_nonzero/Const"
      }
    }
    node_def {
      name: "count_nonzero/nonzero_count"
      op: "Sum"
      input: "count_nonzero/Cast:y:0"
      input: "count_nonzero/Const:output:0"
      attr {
        key: "T"
        value {
          type: DT_INT32
        }
      }
      attr {
        key: "Tidx"
        value {
          type: DT_INT32
        }
      }
      attr {
        key: "_output_shapes"
        value {
          list {
            shape {
            }
          }
        }
      }
      attr {
        key: "keep_dims"
        value {
          b: false
        }
      }
      experimental_debug_info {
        original_node_names: "count_nonzero/nonzero_count"
      }
    }
    node_def {
      name: "Cast"
      op: "Cast"
      input: "count_nonzero/nonzero_count:output:0"
      attr {
        key: "DstT"
        value {
          type: DT_INT64
        }
      }
      attr {
        key: "SrcT"
        value {
          type: DT_INT32
        }
      }
      attr {
        key: "Truncate"
        value {
          b: false
        }
      }
      attr {
        key: "_output_shapes"
        value {
          list {
            shape {
            }
          }
        }
      }
      experimental_debug_info {
        original_node_names: "Cast"
      }
    }
    ret {
      key: "cast"
      value: "Cast:y:0"
    }
    attr {
      key: "_input_shapes"
      value {
        list {
          shape {
            dim {
              size: 9
            }
            dim {
              size: 1
            }
          }
        }
      }
    }
  }
  function {
    signature {
      name: "zero_fraction_cond_false_65159"
      input_arg {
        name: "count_nonzero_notequal_zero_fraction_readvariableop"
        type: DT_FLOAT
      }
      output_arg {
        name: "count_nonzero_nonzero_count"
        type: DT_INT64
      }
    }
    node_def {
      name: "count_nonzero/zeros"
      op: "Const"
      attr {
        key: "_output_shapes"
        value {
          list {
            shape {
            }
          }
        }
      }
      attr {
        key: "dtype"
        value {
          type: DT_FLOAT
        }
      }
      attr {
        key: "value"
        value {
          tensor {
            dtype: DT_FLOAT
            tensor_shape {
            }
            float_val: 0.0
          }
        }
      }
      experimental_debug_info {
        original_node_names: "count_nonzero/zeros"
      }
    }
    node_def {
      name: "count_nonzero/NotEqual"
      op: "NotEqual"
      input: "count_nonzero_notequal_zero_fraction_readvariableop"
      input: "count_nonzero/zeros:output:0"
      attr {
        key: "T"
        value {
          type: DT_FLOAT
        }
      }
      attr {
        key: "_output_shapes"
        value {
          list {
            shape {
              dim {
                size: 1
              }
              dim {
                size: 1
              }
            }
          }
        }
      }
      attr {
        key: "incompatible_shape_error"
        value {
          b: true
        }
      }
      experimental_debug_info {
        original_node_names: "count_nonzero/NotEqual"
      }
    }
    node_def {
      name: "count_nonzero/Cast"
      op: "Cast"
      input: "count_nonzero/NotEqual:z:0"
      attr {
        key: "DstT"
        value {
          type: DT_INT64
        }
      }
      attr {
        key: "SrcT"
        value {
          type: DT_BOOL
        }
      }
      attr {
        key: "Truncate"
        value {
          b: false
        }
      }
      attr {
        key: "_output_shapes"
        value {
          list {
            shape {
              dim {
                size: 1
              }
              dim {
                size: 1
              }
            }
          }
        }
      }
      experimental_debug_info {
        original_node_names: "count_nonzero/Cast"
      }
    }
    node_def {
      name: "count_nonzero/Const"
      op: "Const"
      attr {
        key: "_output_shapes"
        value {
          list {
            shape {
              dim {
                size: 2
              }
            }
          }
        }
      }
      attr {
        key: "dtype"
        value {
          type: DT_INT32
        }
      }
      attr {
        key: "value"
        value {
          tensor {
            dtype: DT_INT32
            tensor_shape {
              dim {
                size: 2
              }
            }
            tensor_content: "\000\000\000\000\001\000\000\000"
          }
        }
      }
      experimental_debug_info {
        original_node_names: "count_nonzero/Const"
      }
    }
    node_def {
      name: "count_nonzero/nonzero_count"
      op: "Sum"
      input: "count_nonzero/Cast:y:0"
      input: "count_nonzero/Const:output:0"
      attr {
        key: "T"
        value {
          type: DT_INT64
        }
      }
      attr {
        key: "Tidx"
        value {
          type: DT_INT32
        }
      }
      attr {
        key: "_output_shapes"
        value {
          list {
            shape {
            }
          }
        }
      }
      attr {
        key: "keep_dims"
        value {
          b: false
        }
      }
      experimental_debug_info {
        original_node_names: "count_nonzero/nonzero_count"
      }
    }
    ret {
      key: "count_nonzero_nonzero_count"
      value: "count_nonzero/nonzero_count:output:0"
    }
    attr {
      key: "_input_shapes"
      value {
        list {
          shape {
            dim {
              size: 1
            }
            dim {
              size: 1
            }
          }
        }
      }
    }
  }
  function {
    signature {
      name: "linear_zero_fraction_total_zero_zero_count_2_false_65106"
      input_arg {
        name: "zero_fraction_readvariableop_linear_linear_model_embarked_indicator_weights_part_0"
        type: DT_RESOURCE
      }
      input_arg {
        name: "cast_linear_zero_fraction_total_size_size_2"
        type: DT_INT64
      }
      output_arg {
        name: "mul"
        type: DT_FLOAT
      }
      is_stateful: true
    }
    node_def {
      name: "zero_fraction/ReadVariableOp"
      op: "ReadVariableOp"
      input: "zero_fraction_readvariableop_linear_linear_model_embarked_indicator_weights_part_0"
      attr {
        key: "_output_shapes"
        value {
          list {
            shape {
              dim {
                size: 4
              }
              dim {
                size: 1
              }
            }
          }
        }
      }
      attr {
        key: "dtype"
        value {
          type: DT_FLOAT
        }
      }
      experimental_debug_info {
        original_node_names: "zero_fraction/ReadVariableOp"
      }
    }
    node_def {
      name: "zero_fraction/Size"
      op: "Const"
      attr {
        key: "_output_shapes"
        value {
          list {
            shape {
            }
          }
        }
      }
      attr {
        key: "dtype"
        value {
          type: DT_INT64
        }
      }
      attr {
        key: "value"
        value {
          tensor {
            dtype: DT_INT64
            tensor_shape {
            }
            int64_val: 4
          }
        }
      }
      experimental_debug_info {
        original_node_names: "zero_fraction/Size"
      }
    }
    node_def {
      name: "zero_fraction/LessEqual/y"
      op: "Const"
      attr {
        key: "_output_shapes"
        value {
          list {
            shape {
            }
          }
        }
      }
      attr {
        key: "dtype"
        value {
          type: DT_INT64
        }
      }
      attr {
        key: "value"
        value {
          tensor {
            dtype: DT_INT64
            tensor_shape {
            }
            int64_val: 2147483647
          }
        }
      }
      experimental_debug_info {
        original_node_names: "zero_fraction/LessEqual/y"
      }
    }
    node_def {
      name: "zero_fraction/LessEqual"
      op: "LessEqual"
      input: "zero_fraction/Size:output:0"
      input: "zero_fraction/LessEqual/y:output:0"
      attr {
        key: "T"
        value {
          type: DT_INT64
        }
      }
      attr {
        key: "_output_shapes"
        value {
          list {
            shape {
            }
          }
        }
      }
      experimental_debug_info {
        original_node_names: "zero_fraction/LessEqual"
      }
    }
    node_def {
      name: "zero_fraction/cond"
      op: "StatelessIf"
      input: "zero_fraction/LessEqual:z:0"
      input: "zero_fraction/ReadVariableOp:value:0"
      attr {
        key: "Tcond"
        value {
          type: DT_BOOL
        }
      }
      attr {
        key: "Tin"
        value {
          list {
            type: DT_FLOAT
          }
        }
      }
      attr {
        key: "Tout"
        value {
          list {
            type: DT_INT64
          }
        }
      }
      attr {
        key: "_lower_using_switch_merge"
        value {
          b: true
        }
      }
      attr {
        key: "_output_shapes"
        value {
          list {
            shape {
            }
          }
        }
      }
      attr {
        key: "else_branch"
        value {
          func {
            name: "zero_fraction_cond_false_65116"
          }
        }
      }
      attr {
        key: "output_shapes"
        value {
          list {
            shape {
            }
          }
        }
      }
      attr {
        key: "then_branch"
        value {
          func {
            name: "zero_fraction_cond_true_65115"
          }
        }
      }
      experimental_debug_info {
        original_node_names: "zero_fraction/cond"
      }
    }
    node_def {
      name: "zero_fraction/cond/Identity"
      op: "Identity"
      input: "zero_fraction/cond:output:0"
      attr {
        key: "T"
        value {
          type: DT_INT64
        }
      }
      attr {
        key: "_output_shapes"
        value {
          list {
            shape {
            }
          }
        }
      }
      experimental_debug_info {
        original_node_names: "zero_fraction/cond/Identity"
      }
    }
    node_def {
      name: "zero_fraction/counts_to_fraction/sub"
      op: "Sub"
      input: "zero_fraction/Size:output:0"
      input: "zero_fraction/cond/Identity:output:0"
      attr {
        key: "T"
        value {
          type: DT_INT64
        }
      }
      attr {
        key: "_output_shapes"
        value {
          list {
            shape {
            }
          }
        }
      }
      experimental_debug_info {
        original_node_names: "zero_fraction/counts_to_fraction/sub"
      }
    }
    node_def {
      name: "zero_fraction/counts_to_fraction/Cast"
      op: "Cast"
      input: "zero_fraction/counts_to_fraction/sub:z:0"
      attr {
        key: "DstT"
        value {
          type: DT_FLOAT
        }
      }
      attr {
        key: "SrcT"
        value {
          type: DT_INT64
        }
      }
      attr {
        key: "Truncate"
        value {
          b: false
        }
      }
      attr {
        key: "_output_shapes"
        value {
          list {
            shape {
            }
          }
        }
      }
      experimental_debug_info {
        original_node_names: "zero_fraction/counts_to_fraction/Cast"
      }
    }
    node_def {
      name: "zero_fraction/counts_to_fraction/Cast_1"
      op: "Cast"
      input: "zero_fraction/Size:output:0"
      attr {
        key: "DstT"
        value {
          type: DT_FLOAT
        }
      }
      attr {
        key: "SrcT"
        value {
          type: DT_INT64
        }
      }
      attr {
        key: "Truncate"
        value {
          b: false
        }
      }
      attr {
        key: "_output_shapes"
        value {
          list {
            shape {
            }
          }
        }
      }
      experimental_debug_info {
        original_node_names: "zero_fraction/counts_to_fraction/Cast_1"
      }
    }
    node_def {
      name: "zero_fraction/counts_to_fraction/truediv"
      op: "RealDiv"
      input: "zero_fraction/counts_to_fraction/Cast:y:0"
      input: "zero_fraction/counts_to_fraction/Cast_1:y:0"
      attr {
        key: "T"
        value {
          type: DT_FLOAT
        }
      }
      attr {
        key: "_output_shapes"
        value {
          list {
            shape {
            }
          }
        }
      }
      experimental_debug_info {
        original_node_names: "zero_fraction/counts_to_fraction/truediv"
      }
    }
    node_def {
      name: "zero_fraction/fraction"
      op: "Identity"
      input: "zero_fraction/counts_to_fraction/truediv:z:0"
      attr {
        key: "T"
        value {
          type: DT_FLOAT
        }
      }
      attr {
        key: "_output_shapes"
        value {
          list {
            shape {
            }
          }
        }
      }
      experimental_debug_info {
        original_node_names: "zero_fraction/fraction"
      }
    }
    node_def {
      name: "Cast"
      op: "Cast"
      input: "cast_linear_zero_fraction_total_size_size_2"
      attr {
        key: "DstT"
        value {
          type: DT_FLOAT
        }
      }
      attr {
        key: "SrcT"
        value {
          type: DT_INT64
        }
      }
      attr {
        key: "Truncate"
        value {
          b: false
        }
      }
      attr {
        key: "_output_shapes"
        value {
          list {
            shape {
            }
          }
        }
      }
      experimental_debug_info {
        original_node_names: "Cast"
      }
    }
    node_def {
      name: "mul_0"
      op: "Mul"
      input: "zero_fraction/fraction:output:0"
      input: "Cast:y:0"
      attr {
        key: "T"
        value {
          type: DT_FLOAT
        }
      }
      experimental_debug_info {
        original_node_names: "mul"
      }
    }
    ret {
      key: "mul"
      value: "mul_0:z:0"
    }
    attr {
      key: "_input_shapes"
      value {
        list {
          shape {
            unknown_rank: true
          }
          shape {
          }
        }
      }
    }
  }
  function {
    signature {
      name: "zero_fraction_cond_true_65201"
      input_arg {
        name: "count_nonzero_notequal_zero_fraction_readvariableop"
        type: DT_FLOAT
      }
      output_arg {
        name: "cast"
        type: DT_INT64
      }
    }
    node_def {
      name: "count_nonzero/zeros"
      op: "Const"
      attr {
        key: "_output_shapes"
        value {
          list {
            shape {
            }
          }
        }
      }
      attr {
        key: "dtype"
        value {
          type: DT_FLOAT
        }
      }
      attr {
        key: "value"
        value {
          tensor {
            dtype: DT_FLOAT
            tensor_shape {
            }
            float_val: 0.0
          }
        }
      }
      experimental_debug_info {
        original_node_names: "count_nonzero/zeros"
      }
    }
    node_def {
      name: "count_nonzero/NotEqual"
      op: "NotEqual"
      input: "count_nonzero_notequal_zero_fraction_readvariableop"
      input: "count_nonzero/zeros:output:0"
      attr {
        key: "T"
        value {
          type: DT_FLOAT
        }
      }
      attr {
        key: "_output_shapes"
        value {
          list {
            shape {
              dim {
                size: 7
              }
              dim {
                size: 1
              }
            }
          }
        }
      }
      attr {
        key: "incompatible_shape_error"
        value {
          b: true
        }
      }
      experimental_debug_info {
        original_node_names: "count_nonzero/NotEqual"
      }
    }
    node_def {
      name: "count_nonzero/Cast"
      op: "Cast"
      input: "count_nonzero/NotEqual:z:0"
      attr {
        key: "DstT"
        value {
          type: DT_INT32
        }
      }
      attr {
        key: "SrcT"
        value {
          type: DT_BOOL
        }
      }
      attr {
        key: "Truncate"
        value {
          b: false
        }
      }
      attr {
        key: "_output_shapes"
        value {
          list {
            shape {
              dim {
                size: 7
              }
              dim {
                size: 1
              }
            }
          }
        }
      }
      experimental_debug_info {
        original_node_names: "count_nonzero/Cast"
      }
    }
    node_def {
      name: "count_nonzero/Const"
      op: "Const"
      attr {
        key: "_output_shapes"
        value {
          list {
            shape {
              dim {
                size: 2
              }
            }
          }
        }
      }
      attr {
        key: "dtype"
        value {
          type: DT_INT32
        }
      }
      attr {
        key: "value"
        value {
          tensor {
            dtype: DT_INT32
            tensor_shape {
              dim {
                size: 2
              }
            }
            tensor_content: "\000\000\000\000\001\000\000\000"
          }
        }
      }
      experimental_debug_info {
        original_node_names: "count_nonzero/Const"
      }
    }
    node_def {
      name: "count_nonzero/nonzero_count"
      op: "Sum"
      input: "count_nonzero/Cast:y:0"
      input: "count_nonzero/Const:output:0"
      attr {
        key: "T"
        value {
          type: DT_INT32
        }
      }
      attr {
        key: "Tidx"
        value {
          type: DT_INT32
        }
      }
      attr {
        key: "_output_shapes"
        value {
          list {
            shape {
            }
          }
        }
      }
      attr {
        key: "keep_dims"
        value {
          b: false
        }
      }
      experimental_debug_info {
        original_node_names: "count_nonzero/nonzero_count"
      }
    }
    node_def {
      name: "Cast"
      op: "Cast"
      input: "count_nonzero/nonzero_count:output:0"
      attr {
        key: "DstT"
        value {
          type: DT_INT64
        }
      }
      attr {
        key: "SrcT"
        value {
          type: DT_INT32
        }
      }
      attr {
        key: "Truncate"
        value {
          b: false
        }
      }
      attr {
        key: "_output_shapes"
        value {
          list {
            shape {
            }
          }
        }
      }
      experimental_debug_info {
        original_node_names: "Cast"
      }
    }
    ret {
      key: "cast"
      value: "Cast:y:0"
    }
    attr {
      key: "_input_shapes"
      value {
        list {
          shape {
            dim {
              size: 7
            }
            dim {
              size: 1
            }
          }
        }
      }
    }
  }
  function {
    signature {
      name: "linear_zero_fraction_total_zero_zero_count_true_65019"
      input_arg {
        name: "placeholder"
        type: DT_RESOURCE
      }
      input_arg {
        name: "placeholder_1"
        type: DT_INT64
      }
      output_arg {
        name: "const"
        type: DT_FLOAT
      }
    }
    node_def {
      name: "Const"
      op: "Const"
      attr {
        key: "_output_shapes"
        value {
          list {
            shape {
            }
          }
        }
      }
      attr {
        key: "dtype"
        value {
          type: DT_FLOAT
        }
      }
      attr {
        key: "value"
        value {
          tensor {
            dtype: DT_FLOAT
            tensor_shape {
            }
            float_val: 0.0
          }
        }
      }
      experimental_debug_info {
        original_node_names: "Const"
      }
    }
    ret {
      key: "const"
      value: "Const:output:0"
    }
    attr {
      key: "_input_shapes"
      value {
        list {
          shape {
            unknown_rank: true
          }
          shape {
          }
        }
      }
    }
  }
}
versions {
  producer: 175
  min_consumer: 12
}
